chosen_models/model_epoch_5.pth (torch, 83140 bytes, 6 tensors)

conv1.weight f4 [64, 3, 9, 9]
0	0xbbf81cbc	-0.007571785
1	0xbc82a8ee	-0.015949693
2	0x3d064080	0.032776356
3	0x3d0e161e	0.03468906
4	0x3d3ca89e	0.046059243
5	0x3be7e87f	0.0070772762
6	0x3d93a47d	0.07209108
7	0xbd3a34cc	-0.045460507
8	0xbb80d9cb	-0.003932213
9	0xbd0c2b95	-0.03422125
10	0x3d298c0a	0.041393317
11	0xbc1073bc	-0.008816656
12	0xbd9af922	-0.075670496
13	0xbca50cc0	-0.020147681
14	0x3d72c108	0.05926612
15	0x3d2d4669	0.042303476
16	0xbca0fd19	-0.019651936
17	0xbd1a423c	-0.037660822
18	0xbb9406bc	-0.0045174044
19	0x3d7b4328	0.061343342
20	0xbd030d0a	-0.031994857
21	0xbe0bb1ba	-0.13642016
22	0xbde6e9ce	-0.112750635
23	0xbc9bb762	-0.019008342
24	0x3dc24e56	0.09487598
25	0x3d2ea019	0.04263315
26	0x3cd76ec6	0.026297938
27	0x3c319548	0.010838814
28	0xbdb1106b	-0.086457096
29	0xbe4f0bbb	-0.20219319
30	0xbe853f04	-0.2602464
31	0xbcc620f2	-0.024185631
32	0x3c1084b8	0.008820705
33	0xbcb0effd	-0.02159881
34	0xbd3db3b6	-0.046313964
35	0x3bbc8c58	0.005754035
36	0x3cf9980c	0.03046801
37	0xbb9db62d	-0.004812977
38	0xbe12d836	-0.1434029
39	0x3ced17ae	0.028941955
40	0x3e1e8acb	0.15482633
41	0x3e191e52	0.14952973
42	0x39f50415	0.00046733083
43	0x3d305f20	0.04305947
44	0x3b8fe82b	0.0043916903
45	0x3d3c1983	0.045922767
46	0xbc826a9c	-0.015919976
47	0x3c4462b7	0.011986426
48	0x3da0ff15	0.07861153
49	0x3dd0889e	0.10182308
50	0x3e058cc0	0.13041973
51	0x3c4d3185	0.012524013
52	0x3d744e50	0.059644997
53	0xbd2fa2d9	-0.042879913
54	0xbce0c5f2	-0.027438138
55	0x3e0284a2	0.12745908
56	0x3d8d01d6	0.06885116
57	0xbcf0537a	-0.02933668
58	0xbd3bb970	-0.045831144
59	0xbce1ff47	-0.027587546
60	0x3c80ec28	0.015737608
61	0xbd4b50c0	-0.049637556
62	0xbd91b358	-0.07114285
63	0x3cd40037	0.025879009
64	0xbccb1766	-0.02479143
65	0x3cb66b94	0.022268094
66	0xbd39983b	-0.045311194
67	0xbc16f9cd	-0.009214831
68	0x3c60882f	0.013704344
69	0xbbc7d07f	-0.0060978527
70	0xbd16b2ef	-0.036791738
71	0x3c335f66	0.010948038
72	0xbd22a8cc	-0.03971176
73	0xbba0d30a	-0.0049079703
74	0x3c63483a	0.013872201
75	0xbc40ae7f	-0.011760353
76	0x3cd0fcf9	0.025511252
77	0xbcd111d0	-0.025521189
78	0xbd25e9fd	-0.04050635
79	0x3ca4c142	0.020111684
80	0x3d879c99	0.066216655
81	0xbc33b60d	-0.010968697
82	0x3b80bfa5	0.003929096
83	0xbd52a90a	-0.05143074
84	0xbd3299ae	-0.04360359
85	0x3dbfb0ce	0.09359895
86	0xbb9167af	-0.004437409
87	0xbd29f865	-0.041496653
88	0xbd0c2eb9	-0.034224246
89	0x3cf7434f	0.030183462
90	0xbd3138d3	-0.043267082
91	0xbbf6addd	-0.0075280503
92	0x3d50a1c5	0.050935525
93	0x3df4e9a5	0.11958627
94	0xbb3aa033	-0.0028476834
95	0xbd7cf215	-0.061754305
96	0x3d5006f2	0.050787874
97	0x3c8492ce	0.016183283
98	0xbd446fef	-0.04795831
99	0xbd390a0c	-0.045175597
100	0x3e048f74	0.12945348
101	0x3cc83e22	0.02444369
102	0xbc0b0229	-0.008484402
103	0x3d21b23f	0.03947663
104	0x3bf6c831	0.007531189
105	0xbdb40761	-0.0879047
106	0x3d108dbb	0.035291415
107	0xbad278d8	-0.0016057743
108	0x3d222ab8	0.03959152
109	0x3981a1b9	0.0002472529
110	0xbc55947a	-0.013035888
111	0x3daa14cc	0.08304748
112	0x3de50126	0.1118186
113	0xbcbc9c06	-0.023023617
114	0xbd8840b6	-0.06652968
115	0xb8765e10	-5.8738573e-05
116	0xbc17e81e	-0.00927165
117	0x3c8cca58	0.017186329
118	0xbd855908	-0.06511122
119	0xbe050751	-0.12991072
120	0x3e536d3e	0.20647141
121	0x3e68db88	0.22739995
122	0x3db2eeda	0.087369636
123	0xbdf5e54e	-0.12006627
124	0x3b5fa00e	0.00341225
125	0x3d913417	0.070900135
126	0x3d1907c8	0.037360936
127	0xbd51b652	-0.051199265
128	0x3c4db217	0.012554667
129	0x3ca85b0b	0.020551225
130	0x3d2c76d5	0.042105515
131	0xbd2b6b33	-0.04185028
132	0xbbf59488	-0.007494513
133	0x3c40f4fc	0.011777159
134	0x3c16e590	0.009210005
135	0xbd3f98a7	-0.04677644
136	0x3d26158e	0.0405479
137	0x3aa6bbba	0.0012720742
138	0xbdb9aac7	-0.09065776
139	0xbdfc0cc0	-0.12307119
140	0x3c2deffc	0.010616299
141	0x3db62b30	0.08894956
142	0x3a92bebc	0.0011195759
143	0x3cfd199e	0.030896004
144	0xbc0b91cb	-0.0085186465
145	0x3cb2cf97	0.021827502
146	0x3d4e48e4	0.050362483
147	0xbca76df7	-0.020438178
148	0x3d6f65a6	0.05844655
149	0x3d66c3f9	0.056339238
150	0x3c2944c0	0.010331333
151	0xbd1c733f	-0.038195845
152	0xbd50df40	-0.050994158
153	0xbafcbfe9	-0.0019283268
154	0xb8f8b539	-0.00011859317
155	0xbd5fae4c	-0.05460958
156	0x3cded135	0.027199367
157	0x3d7af1f2	0.061265893
158	0x3c9f4123	0.01944024
159	0xbc0ec0d0	-0.008712962
160	0xbceea20a	-0.02913
161	0x3cd872a1	0.026421847
162	0x3d8de79d	0.06928942
163	0xbc3d5ab0	-0.011557266
164	0xbd9968e6	-0.07490711
165	0x3d667e37	0.05627271
166	0x3d3fdeae	0.046843223
167	0xbda125be	-0.07868527
168	0x3ca2e74c	0.019885682
169	0x3cece46c	0.028917514
170	0x3c909872	0.017650817
171	0xbd0f6bc4	-0.035014883
172	0xbca0cd03	-0.019629007
173	0x3ca92455	0.020647207
174	0x3d4bf448	0.04979351
175	0xbd6d4821	-0.057930116
176	0xbd22528f	-0.039629515
177	0x3d85a34f	0.06525289
178	0x3c02b5bf	0.007977902
179	0xbd65d1a8	-0.056108147
180	0x3c37725a	0.011196697
181	0x3bc77609	0.006087069
182	0x3d41a7b8	0.04727909
183	0xbd33a085	-0.043854255
184	0xbe1408b8	-0.14456451
185	0xbdb2d5c2	-0.08732177
186	0x3cf129c5	0.029438863
187	0x3e0624a8	0.13099921
188	0xbdb873b2	-0.09006442
189	0xbd10eb95	-0.03538092
190	0xbdcd7e6b	-0.10033878
191	0xbd8080c5	-0.06274561
192	0x3dfdb1bf	0.12387418
193	0x3da49e60	0.0803802
194	0xbe09736b	-0.13422935
195	0xbe3a6e32	-0.18206099
196	0x3d83900c	0.06423959
197	0x3d8ac68c	0.06776151
198	0x3d644163	0.05572642
199	0xbd3a0a98	-0.04542026
200	0xbcc95e27	-0.024581028
201	0x3e3f7132	0.18695524
202	0x3e9f9e8e	0.31175655
203	0x3c0570bb	0.008144553
204	0xbe2e5c52	-0.17027405
205	0xbd031df3	-0.032010984
206	0x3dc02c86	0.09383492
207	0x3d2d34f4	0.04228683
208	0xbd29c704	-0.04144956
209	0xbc6ac1e7	-0.0143284565
210	0x3dba18a4	0.09086731
211	0x3c504d5e	0.012713758
212	0xbe417f8f	-0.18896316
213	0xbde540fc	-0.111940354
214	0xbd1e1778	-0.0385966
215	0xbdc0dd0e	-0.09417163
216	0xbcb48f89	-0.0220411
217	0xbd1514c3	-0.036396753
218	0x3d2ddacc	0.04244499
219	0xbcff1008	-0.031135574
220	0xbe2d8f4f	-0.16949199
221	0xbdc82ed9	-0.097745605
222	0x3de0ca83	0.10976126
223	0x3d782e32	0.06059093
224	0x3c91802b	0.01776131
225	0x3cdfed51	0.027334841
226	0xbc08a8a0	-0.008340985
227	0xbde53ee3	-0.11193635
228	0x3d813f81	0.063109405
229	0xbd3bba21	-0.045831803
230	0xbc42ce6e	-0.011890037
231	0x3d6161fa	0.05502508
232	0x3d4f7f71	0.050658647
233	0x3cf73648	0.03017725
234	0x3d31de4a	0.043424882
235	0xbccf286f	-0.025287835
236	0xbc1d331f	-0.009594708
237	0xb964f00c	-0.00021833199
238	0x3da05207	0.078281455
239	0xbbfe7b1d	-0.007766141
240	0xbd5f6d19	-0.054547403
241	0xbca28ee7	-0.019843532
242	0xbd1bfcfd	-0.038083065
243	0xbd3491a5	-0.04408421
244	0x3b605844	0.0034232298
245	0x3cf18246	0.029481065
246	0xbc486cb6	-0.01223295
247	0xbd431615	-0.04762848
248	0xbd456aab	-0.04819743
249	0x3c100c0b	0.008791934
250	0xbc1a3177	-0.009411207
251	0xbc435177	-0.011921278
252	0x3c8488de	0.016178545
253	0xbd737caf	-0.05944508
254	0xbc15968c	-0.009130131
255	0xb97e5f32	-0.0002425879

conv1.bias f4 [64]
0	0x3e381c56	0.1797956
1	0xbd90ebdf	-0.07076239
2	0xbddb4e5b	-0.107083045
3	0x3b1a54c3	0.0023549057
4	0xbc1ef463	-0.009701821
5	0xbd934179	-0.07190222
6	0xbdca35d2	-0.09873547
7	0x3b2c903c	0.0026331088
8	0x3ca0c86f	0.019626824
9	0xbbf52f6e	-0.0074824607
10	0x3c8ccc0d	0.017187143
11	0x3d660e02	0.056165703
12	0x3d3f2d8d	0.0466743
13	0x3e35ca33	0.17752914
14	0x3bb8f29b	0.005644155
15	0x3d190ce6	0.037365817
16	0x3c40941a	0.01175406
17	0xbd91b686	-0.07114892
18	0xbe444979	-0.19168653
19	0x3d902c40	0.0703969
20	0xbb813d44	-0.003944071
21	0x3c8e4414	0.017366447
22	0xbd4d6438	-0.050144404
23	0xba9e8ee6	-0.001209703
24	0xbc8f9e5e	-0.01753157
25	0x3b26b116	0.0025435141
26	0x3cb4c72f	0.022067634
27	0x3cecf0d7	0.028923435
28	0xbd9b121d	-0.07571814
29	0xbd9f9dd8	-0.07793778
30	0x3b966dce	0.0045907265
31	0xbd208212	-0.039186545
32	0xb8f382cc	-0.00011611506
33	0x3d61ed55	0.055157978
34	0xbb00de23	-0.0019663654
35	0xbd5cfd2b	-0.053952377
36	0x3b42964f	0.0029691642
37	0xbcdf628e	-0.027268674
38	0x3d04d871	0.032432977
39	0x3c7819e4	0.015142892
40	0x3caea965	0.021321008
41	0xb8dada38	-0.000104356965
42	0xbcb9750c	-0.02263882
43	0xbd8dc069	-0.06921465
44	0xbbe6ec07	-0.0070471796
45	0x3cb57906	0.022152435
46	0xbc5158fe	-0.012777565
47	0x3c2c28b0	0.0105077475
48	0x3cdc44cf	0.02688828
49	0xbcc2dc68	-0.023786739
50	0xbb1ff8c9	-0.0024409762
51	0xbcbdc8eb	-0.023167094
52	0x3d961837	0.07328837
53	0x3c01d9cd	0.007925463
54	0x3d129e20	0.03579533
55	0x3de5fcac	0.11229834
56	0x3e062baa	0.13102594
57	0x3c107ce8	0.0088188425
58	0x3b9d48d7	0.004799943
59	0xbd634299	-0.055483434
60	0x3da0893a	0.07838674
61	0x3cbfcf3c	0.023414247
62	0x3cbe7313	0.023248231
63	0x3dbb492f	0.09144818

conv2.weight f4 [32, 64, 1, 1]
0	0x3e2b27e1	0.16714431
1	0xbd80c1d0	-0.06286967
2	0x3dd3afb4	0.10336247
3	0x3d8d1cfd	0.06890295
4	0x3d8f6951	0.070025094
5	0xbbddd9fb	-0.00677037
6	0xbe22cff7	-0.15899645
7	0x3eda85cd	0.42680207
8	0x3c89369d	0.016749674
9	0x3c0baa19	0.008524441
10	0xbd2019f3	-0.039087247
11	0x3d32af27	0.04362407
12	0xbd00192e	-0.031274013
13	0xbdb42835	-0.087967314
14	0x3e25ff07	0.16210566
15	0xbdc38374	-0.09546557
16	0xbe0e7c11	-0.13914515
17	0x3e3dcc5c	0.18534988
18	0xbe0b95e4	-0.13631397
19	0xbeffa868	-0.4993317
20	0xbd8bf326	-0.06833486
21	0x3c616663	0.013757321
22	0x3d515b45	0.051112432
23	0xbe2f8303	-0.17139821
24	0x3dfb1dc0	0.12261534
25	0xbc13ec1d	-0.009028462
26	0xbc463776	-0.012098184
27	0xbd8f35e4	-0.06992701
28	0x3e153fac	0.1457507
29	0x3dbb351b	0.091409884
30	0xbe1bcbb0	-0.1521442
31	0xbd6463a0	-0.055759072
32	0x3ec48477	0.38382313
33	0x3c0a2d30	0.008433625
34	0x3dbfde52	0.09368576
35	0x3db67699	0.089093395
36	0x3e4affc2	0.19824126
37	0x3cd4e5d6	0.0259885
38	0xbe172241	-0.1475916
39	0x3e49f93a	0.19723979
40	0x3e014cb1	0.12626912
41	0xbe889efe	-0.266838
42	0x3db1e007	0.08685308
43	0xbcb23ad7	-0.021756573
44	0x3da52820	0.08064294
45	0x3d966ebb	0.07345339
46	0xbd4baef5	-0.0497274
47	0xbdc6fd19	-0.09716243
48	0xbe1ea8fa	-0.15494147
49	0x3e9223f1	0.28543046
50	0x3d3d8cdd	0.046276916
51	0x3eaaaf89	0.33337048
52	0xbd5fddae	-0.05465477
53	0xbeb309a5	-0.34968296
54	0xbe247fdf	-0.16064404
55	0x3db83fd0	0.08996546
56	0x3c5c7349	0.0134552205
57	0x3e8e3ed5	0.27782312
58	0xbd8996e5	-0.06718234
59	0x3d34021f	0.043947335
60	0x3cda1101	0.026619436
61	0xbc81e2b7	-0.015855176
62	0x3bc5ae18	0.0060327165
63	0x3de1bc92	0.11022295
64	0xbae34661	-0.00173397
65	0xbdaba636	-0.083813116
66	0xbe3ed673	-0.18636493
67	0xbe057ada	-0.13035145
68	0xbdcd3232	-0.100193396
69	0xbdbbe9c0	-0.09175444
70	0x3dbaeab7	0.091267996
71	0x3e6f80d2	0.23388985
72	0xbd37a27c	-0.04483269
73	0x3d0effa9	0.034911785
74	0xbbd446fd	-0.006478189
75	0xbd816d56	-0.06319682
76	0xbcb2c690	-0.021823198
77	0xbe3dd5bb	-0.18538563
78	0x3e55d2b3	0.20881157
79	0xbcb4aed5	-0.022056023
80	0xbcf41003	-0.029792791
81	0xbbd8ee2f	-0.0066201906
82	0x3d96cf22	0.07363726
83	0xbe1a38ea	-0.15060773
84	0x3e22c773	0.15896396
85	0xbdbfc2a0	-0.09363294
86	0x3d8f1b60	0.06987643
87	0x3cc2976c	0.023753844
88	0xbd280900	-0.041024208
89	0xbdb9b4ac	-0.090676636
90	0x3cac29f6	0.021016102
91	0xbd662f73	-0.056197595
92	0xbd6598cc	-0.05605392
93	0x3d55941e	0.05214321
94	0xbd927271	-0.07150734
95	0x3d15d443	0.03657938
96	0x3da22d1b	0.079187594
97	0xbdc6a7c5	-0.09699968
98	0xbe151025	-0.1455694
99	0x3c64e106	0.013969665
100	0xbe1d5c4f	-0.15367244
101	0x3d0b0236	0.033937655
102	0x3bc24bbe	0.0059294393
103	0xbe191abb	-0.14951603
104	0xbdb190e7	-0.08670216
105	0xbc953153	-0.018211996
106	0xbca45e0c	-0.020064376
107	0x3dead539	0.1146645
108	0x3c6b03a4	0.01434413
109	0x3d3538bb	0.044243556
110	0xbde368b4	-0.11103955
111	0xbbfdb575	-0.0077425786
112	0x3d9cd4a9	0.07657749
113	0xbd55271a	-0.052039243
114	0xbda56c02	-0.080772415
115	0x3c1331ff	0.008984088
116	0xbd598f93	-0.05311544
117	0xbd1abee7	-0.037779715
118	0x3d3a6ad8	0.04551205
119	0xbd384944	-0.044991747
120	0xbcf18681	-0.029483082
121	0x3d690969	0.05689374
122	0xbd97e328	-0.074163735
123	0xbb2d2730	-0.0026421063
124	0xbd8d3575	-0.06894962
125	0x3dc077eb	0.093978725
126	0xbe2fcaa5	-0.17167147
127	0xbd5a3fa1	-0.053283338
128	0xbda90f70	-0.082548976
129	0xbb3f8b4d	-0.0029227317
130	0x3ed0457f	0.4067802
131	0x3caaa7a7	0.020831896
132	0xbcf88d5f	-0.030340848
133	0xbdb0f6cc	-0.08640823
134	0x3de36d4b	0.1110483
135	0xbdc19691	-0.094525464
136	0xbe02cde8	-0.1277386
137	0xbdeb7dfe	-0.114986405
138	0x3d32961f	0.043600198
139	0x3e05a714	0.13052016
140	0xbd42e356	-0.047580086
141	0x3b849e15	0.004047165
142	0x3e22b659	0.15889873
143	0xbd20c602	-0.039251335
144	0x3d7a729d	0.06114446
145	0x3d56bf23	0.052428376
146	0xbd1ef2eb	-0.038805883
147	0xbbdba2af	-0.006702743
148	0x3d40ed42	0.047101267
149	0xbc2f818a	-0.010712037
150	0x3da235b2	0.07920398
151	0x3d65ead1	0.05613214
152	0x3cde04f7	0.027101977
153	0x3c8a74fe	0.01690149
154	0x3da8fa95	0.0825092
155	0x3e31d114	0.17364913
156	0x3dfbcfff	0.122955315
157	0xbcf0a4ee	-0.02937552
158	0x3e0d3cff	0.137928
159	0xbdd81518	-0.10550898
160	0xbce633ca	-0.028100867
161	0xbd3b96f8	-0.045798272
162	0xbbc4bb6e	-0.0060037887
163	0x3b6309c5	0.0034643274
164	0x3e07f423	0.13276725
165	0xbde7a92a	-0.11311562
166	0x3e071b82	0.13194087
167	0xbcf3f2c3	-0.029778844
168	0xbc1fbba5	-0.009749328
169	0x3bb551b7	0.005533423
170	0xbbeb7de3	-0.0071866377
171	0x3cd8afa8	0.026450947
172	0x3e53fb2c	0.20701283
173	0x3d3bd0ae	0.04585331
174	0xbd3975fc	-0.045278534
175	0x3d1ccdc3	0.038282167
176	0xbbb3df51	-0.005489268
177	0xbccf8c11	-0.025335344
178	0x3d501928	0.05080524
179	0x3e4f81e6	0.20264396
180	0x3cad7348	0.021173134
181	0xbddf3fb7	-0.109008245
182	0x3c3b50a5	0.011432801
183	0x3d5c9a84	0.053858295
184	0xbce48907	-0.027897371
185	0x3d8476d0	0.06467974
186	0x3e2189ac	0.15775174
187	0x3c2648f6	0.010149231
188	0x3da14a78	0.07875532
189	0xbd5162a7	-0.051119473
190	0xbd24f34f	-0.0402711
191	0xbd416be5	-0.047222037
192	0x3e3de16e	0.18543026
193	0xbccebe51	-0.025237234
194	0xbda55b86	-0.08074097
195	0xbce6697e	-0.028126474
196	0xbcfd4b5e	-0.030919727
197	0x3c9606ec	0.018313847
198	0x3caf3df0	0.021391839
199	0x3e281a60	0.16416311
200	0x3d86dba6	0.06584863
201	0xbd891aad	-0.06694541
202	0x3d43e4c4	0.04782559
203	0xbc484811	-0.012224213
204	0xbde99667	-0.1140564
205	0x3daab820	0.083359
206	0x3c0e11c7	0.008671231
207	0x3ca155d9	0.019694256
208	0x3da5614c	0.080751985
209	0x3dc38e3c	0.095486134
210	0x3d4a7885	0.049431343
211	0xbdb0986e	-0.08622824
212	0xbde2191d	-0.11039946
213	0x3d1930aa	0.037399925
214	0x3d8c5dd2	0.06853832
215	0xbd07dfce	-0.03317242
216	0x3ce59de9	0.028029399
217	0x3d8c4583	0.06849196
218	0x3d2c7316	0.042101942
219	0x3da9e6dc	0.08295986
220	0xbbfc7b0c	-0.007705098
221	0xbc5bebe4	-0.01342294
222	0x3e143918	0.14474905
223	0x3cd31421	0.025766434
224	0xbca8d45d	-0.020609075
225	0xbce17d76	-0.027525645
226	0xbd9e4100	-0.077272415
227	0xbd5667c6	-0.05234506
228	0x3c159642	0.009130063
229	0xbc0595dd	-0.008153406
230	0x3d5b1043	0.053482305
231	0x3d020562	0.031743415
232	0x3ba1bff6	0.0049362136
233	0x3d11a725	0.035559792
234	0xba8351c1	-0.0010018871
235	0x3dcf4f66	0.10122566
236	0x3e09ba37	0.13449942
237	0xbc84d983	-0.016216999
238	0xbd3063b6	-0.04306384
239	0xbb6d99b7	-0.0036254951
240	0xbc639fe8	-0.013893105
241	0x3d159e96	0.036528192
242	0x3db27fec	0.087158054
243	0xbdd6af20	-0.10482621
244	0x3d0ea2be	0.03482317
245	0xbd36f8a9	-0.044670735
246	0x3d8769e6	0.066119954
247	0xbd04d6e1	-0.032431487
248	0xbc9ab785	-0.018886337
249	0xbca0a436	-0.019609552
250	0x3bce1061	0.0062885736
251	0x3d413e92	0.047178812
252	0x3d0a52b7	0.03377029
253	0x3bbf36ac	0.005835375
254	0xbd2b4d05	-0.0418215
255	0x3d9ea1bc	0.07745692

conv2.bias f4 [32]
0	0xbcbe0040	-0.023193479
1	0x3cb3ebf8	0.021963105
2	0x3b57aad8	0.0032908227
3	0xbd47a790	-0.048743784
4	0xbc570f32	-0.013126181
5	0x3c824c70	0.015905589
6	0xbdc73a81	-0.097279556
7	0x3d5308a9	0.05152193
8	0x3cb9720c	0.02263739
9	0xbde7afcd	-0.11312828
10	0x3bab9c7c	0.0052371603
11	0xbcc56774	-0.024097182
12	0xbd1c2335	-0.038119514
13	0x3c728a0b	0.01480342
14	0xbcea25fb	-0.028582564
15	0xbcccc912	-0.024998222
16	0xbdbe2be3	-0.092857145
17	0xbdfb29d2	-0.12263836
18	0xbcba39f9	-0.022732722
19	0x3d5f52dd	0.054522384
20	0x3ad14793	0.0015966765
21	0xbd832e3c	-0.06405303
22	0x3b5e01cf	0.003387559
23	0xbb15de90	-0.0022868253
24	0x3c37688c	0.0111943595
25	0x3d063f9e	0.032775514
26	0xbc40bb79	-0.011763447
27	0xbc746616	-0.014916917
28	0x3d941d61	0.07232166
29	0x3bdc01b5	0.0067140707
30	0xbdfa2293	-0.12213626
31	0xbd513e7c	-0.05108498

conv3.weight f4 [3, 32, 5, 5]
0	0xbd763206	-0.0601063
1	0x3cdcfe52	0.026976738
2	0x3cb38b04	0.021916874
3	0xbb3eb324	-0.0029098475
4	0xbc895a70	-0.016766757
5	0x3d0c2c01	0.034221653
6	0xbcaef5d4	-0.021357454
7	0xbcc868a3	-0.024463957
8	0xbd6de598	-0.058080286
9	0xbd343491	-0.043995444
10	0x3c93840c	0.0180073
11	0x3d904476	0.07044308
12	0x3e30b00b	0.17254655
13	0x3b168440	0.002296701
14	0x3c94b604	0.018153198
15	0xbce49634	-0.027903654
16	0xbd99119f	-0.07474064
17	0x3d5587b5	0.052131373
18	0xbcd3debe	-0.025863048
19	0x3b83104f	0.003999747
20	0x3ce9775e	0.028499302
21	0xbce6c9f8	-0.028172478
22	0x3ce23c91	0.027616771
23	0xbc17ae6b	-0.009257893
24	0xbc97a159	-0.018509554
25	0x3be2d38f	0.0069221924
26	0x3c68827f	0.014191269
27	0x3d213191	0.03935391
28	0x3d40c150	0.047059357
29	0x3d6bd966	0.057580374
30	0x3cb8d2b7	0.022561414
31	0x3d09e7e6	0.03366842
32	0x3d259268	0.040422827
33	0x3c147e85	0.009063368
34	0x3ba2cdaa	0.0049683647
35	0x3d2400a2	0.040039666
36	0x3d009237	0.03138944
37	0x3dadd5ed	0.08488069
38	0xbcbba9c0	-0.022908092
39	0x3c9ed993	0.019390857
40	0x3bf60111	0.0075074513
41	0xbb9037df	-0.0044011916
42	0x3d8dbb19	0.06920452
43	0x3d43c267	0.04779282
44	0x3d368f0e	0.04457002
45	0x3c300cb1	0.010745213
46	0xbd0fe739	-0.03513262
47	0xbc9c57b8	-0.019084796
48	0x3cd3d2c4	0.025857337
49	0xbb78b974	-0.0037952336
50	0xbcd01d69	-0.025404649
51	0x3be49f58	0.006977003
52	0x3d1047ea	0.035224833
53	0x3b217600	0.0024636984
54	0xbdb45285	-0.08804802
55	0xbd27d571	-0.040975038
56	0xbbb75649	-0.005595003
57	0x3d2eb280	0.0426507
58	0x3b134362	0.0022470583
59	0xbd53f3f0	-0.05174631
60	0xbd86ed86	-0.06588273
61	0xbdd26899	-0.10273857
62	0x3d9cfa7c	0.076649636
63	0x3daa4728	0.08314353
64	0x3ca753ea	0.020425756
65	0xbdb85a5c	-0.0900161
66	0xbda7f4df	-0.08201002
67	0x3dbf1b60	0.09331393
68	0x3e04501f	0.12921189
69	0xbb089b25	-0.0020844426
70	0xbddd348b	-0.108010374
71	0xbdb610c4	-0.088899165
72	0x3dbc2092	0.091859
73	0x3ddbfd0d	0.10741625
74	0xbc677d87	-0.014129049
75	0xbb8b57dd	-0.0042524175
76	0x3d5ba43d	0.053623427
77	0x3cff043b	0.031129947
78	0x3d4269ef	0.047464307
79	0x3d968147	0.073488764
80	0x3cab3730	0.020900339
81	0x3cee4905	0.029087553
82	0x3c0186bd	0.007905659
83	0x3cee7ae8	0.02911134
84	0x3cbe5f4f	0.023238806
85	0xbd34a418	-0.044101804
86	0xbd26c7b5	-0.0407178
87	0xbd4afa74	-0.049555257
88	0xbc610412	-0.013733881
89	0x3ca57d35	0.020201305
90	0xbbab534a	-0.0052284347
91	0xbceb6e3d	-0.02873909
92	0xbd0e8921	-0.034798745
93	0xbd61fa3b	-0.05517028
94	0x3c863a52	0.016385231
95	0x3d0b0a46	0.033945344
96	0xbcf8abb1	-0.030355306
97	0xbd87bbb2	-0.06627597
98	0xbd03a577	-0.03214022
99	0x3c938c91	0.018011363
100	0xbd8c2fa8	-0.06845027
101	0xbdb35d09	-0.087579794
102	0x3bdb9005	0.006700518
103	0x3b975839	0.0046186713
104	0xbdc3d94d	-0.09562931
105	0x3c977d00	0.018492222
106	0xbb221297	-0.0024730319
107	0x3d587a94	0.052851275
108	0x3d746c60	0.059673667
109	0xbc581034	-0.013187457
110	0x3cc3e4a4	0.023912735
111	0x3d35fc99	0.04443035
112	0x3e16cc02	0.1472626
113	0x3d8721bc	0.06598231
114	0xbceea46c	-0.029131137
115	0xbc092020	-0.008369476
116	0xbc78f9d4	-0.015196282
117	0x3d0353b5	0.03206225
118	0xbd10935b	-0.03529678
119	0xbe17aeb4	-0.14812738
120	0x3cd45af2	0.025922272
121	0x3d18a0d6	0.03726276
122	0x3d7affa5	0.061278958
123	0xbd6357db	-0.055503707
124	0xbd28ea6c	-0.041239187
125	0x3c2a5b70	0.010397777
126	0xbcb64ac1	-0.022252442
127	0x3dbe03d1	0.09278072
128	0x3cb8c97d	0.022557015
129	0xbbbf3389	-0.005835001
130	0xbb1adf7f	-0.002363175
131	0xbca37cab	-0.019956907
132	0xbd44eef9	-0.048079465
133	0x3c96aa33	0.018391704
134	0xbd295639	-0.041341994
135	0x3be75746	0.0070599644
136	0x3cc60289	0.02417113
137	0xbe4b630a	-0.19861999
138	0xbc944267	-0.01809807
139	0x3d490ce2	0.04908455
140	0x3b02d06a	0.001996065
141	0x3e1c30b2	0.15252951
142	0x3d04c4eb	0.032414358
143	0x3dddddba	0.108333066
144	0x3d38d249	0.04512242
145	0xbcbc07f8	-0.022953019
146	0xbd8a34d0	-0.067483544
147	0xbc24485a	-0.010027016
148	0xbce907ca	-0.028446097
149	0xbd104507	-0.03522208
150	0x3b945c89	0.0045276326
151	0x3c36eec5	0.0111653255
152	0x3cbffff7	0.023437483
153	0xbc415a01	-0.011801244
154	0x3cba7afe	0.022763725
155	0x3d278de0	0.040906787
156	0x3c684b4b	0.0141781075
157	0xb9d188fc	-0.00039965648
158	0x3cbb816a	0.022888858
159	0x39185ced	0.00014530467
160	0x3c0c2bd7	0.008555374
161	0xbccb254c	-0.024798058
162	0x3c762497	0.015023372
163	0xbc13352a	-0.008984843
164	0x3c6a0630	0.014283702
165	0xbd00d5b3	-0.0314538
166	0xbcf60e2e	-0.030036058
167	0xbc9e5b0f	-0.01933053
168	0xbd179c4a	-0.037014283
169	0x3ca32e81	0.019919636
170	0xbcfc10d0	-0.030769736
171	0x3c2ed96e	0.010671956
172	0x3b867459	0.004103225
173	0xbd036e01	-0.03208733
174	0x3d16753e	0.036732905
175	0x3c1317c3	0.008977833
176	0xbd15ff3f	-0.036620375
177	0x3b93b299	0.0045073745
178	0x3afac690	0.0019132663
179	0xbc2a0f84	-0.010379676
180	0xbab57847	-0.001384505
181	0xbbbc3cc9	-0.005744551
182	0xbd15cc90	-0.03657204
183	0xbd1b403a	-0.037903048
184	0x3be3c301	0.0069507365
185	0xbc4068f2	-0.011743771
186	0xbd825971	-0.06364716
187	0xbd534bd1	-0.051585976
188	0xbdb3d61c	-0.087810725
189	0xbcd61dfc	-0.026137345
190	0xbc6a7d56	-0.014312109
191	0xbc93c8c2	-0.018040065
192	0xbd70b844	-0.05876948
193	0xbd62a6c4	-0.05533482
194	0xbc28f0bc	-0.010311302
195	0x3ca7132d	0.020394886
196	0xbd05bf03	-0.032652866
197	0xbd19f169	-0.037583742
198	0x394eb08a	0.00019711457
199	0xbb36d5ab	-0.0027898352
200	0x3be98f5b	0.007127685
201	0x3c17acaa	0.009257475
202	0xbcb87b96	-0.022519868
203	0xbbbe3e16	-0.005805741
204	0x3c23a216	0.009987375
205	0x3bc11329	0.0058921766
206	0x3ba89043	0.0051441505
207	0xbb0e3b4e	-0.0021702829
208	0x3c526780	0.012842059
209	0x3d2af4cc	0.041737363
210	0x3c019df1	0.007911191
211	0xbccde2e5	-0.025132606
212	0x3d11fcee	0.035641603
213	0x3d05fd30	0.03271216
214	0x3bf4cf04	0.0074709672
215	0x3b74ec71	0.0037372375
216	0x3cd967be	0.026538726
217	0xbcdab292	-0.026696477
218	0x3ce4d5b2	0.02793393
219	0xbc972b16	-0.018453162
220	0xbca64a37	-0.02029906
221	0xbbb47ec8	-0.0055082776
222	0xbcf7a7e1	-0.030231418
223	0x3c56b843	0.013105455
224	0xbb8beea3	-0.004270391
225	0x3d4379e0	0.04772365
226	0x3cd2e49e	0.025743779
227	0x3cc69c39	0.024244415
228	0x3c9d4696	0.019198697
229	0x3cf6b43a	0.030115236
230	0x3c5b5119	0.013386034
231	0xbcad1b04	-0.021131046
232	0xbcdfb218	-0.027306601
233	0x3c9d6e4d	0.019217635
234	0x3ccbdba0	0.024884999
235	0x3d79d453	0.060993504
236	0x3d9ede84	0.07757285
237	0x3d643858	0.055717796
238	0xbd091c95	-0.033474524
239	0xbcb3323a	-0.021874536
240	0x3ce052ea	0.027383287
241	0x3cdaf82e	0.02672967
242	0x3c869960	0.016430557
243	0xbd8d6781	-0.069045074
244	0xbc31c285	-0.0108496
245	0x3c220f65	0.009891366
246	0xbba178b0	-0.004927717
247	0x3be80d44	0.0070816595
248	0xbdc6f6b0	-0.09715021
249	0x3d95bf3e	0.07311867
250	0x3cbed28f	0.023293762
251	0x3d964cfd	0.07338903
252	0x3d85fa36	0.065418646
253	0x3ccf6576	0.025316935
254	0xbb457e4a	-0.0030135089
255	0xbcd014b7	-0.025400503

conv3.bias f4 [3]
0	0x3cc17eb6	0.02361999
1	0x3c65df54	0.014030296
2	0xbbf33dfb	-0.00742316
