chosen_models/srcnn_mse_baseline.pth (torch, 83140 bytes, 6 tensors)

conv1.weight f4 [64, 3, 9, 9]
000000 b1 8e 3d 3c 89 b8 0f bd 17 5f d5 bc 36 f5 7a bd
       0.011569665 -0.035088096 -0.026046319 -0.061269008
000010 bb 54 8f bd e7 61 1d 3d 62 b3 f5 3b b0 44 1d bb
       -0.06998583 0.038423445 0.0074981907 -0.002399724
000020 49 82 e1 3c 42 b1 32 bc 8d 25 95 3b f3 4b 44 3c
       0.027527945 -0.010906519 0.0045515955 0.011980998
000030 25 73 76 3c 10 b0 75 bb 25 22 9d 3c 8f 1b 84 bd
       0.015042101 -0.0037488975 0.01918132 -0.06450569
000040 c0 5b 44 3d 9a 5e 53 bd 79 cd 0d bc 3c 1b 13 3d
       0.047939062 -0.05160389 -0.0086549455 0.035914645
000050 6e 4f 33 3c 79 3b 4b 3d e3 6e 6d 3d ca 1a ec bc
       0.0109442305 0.049617264 0.057967078 -0.028821368
000060 59 ab 39 3d 31 72 a0 3c 98 ba bd 3c 81 52 12 3b
       0.045329425 0.0195857 0.023160264 0.0022327008
000070 46 c4 f4 3c 4d eb b8 3d ca fb 93 3d a0 cb 47 3d
       0.029878747 0.09029255 0.07225759 0.048778176
000080 1e b3 0c bd de b1 22 3d 6e dd 2d bd e5 36 01 3d
       -0.034350507 0.03972041 -0.0424475 0.031546492
000090 05 3c 89 bc 55 84 bb 3c cd fd e6 3d 8d f8 96 3d
       -0.016752252 0.02289025 0.112788774 0.07371626
0000a0 f8 20 f5 3d c3 0a df bc 31 71 66 bc bf 40 5a 3d
       0.11969179 -0.027226811 -0.014065073 0.053284403
0000b0 ed 56 61 bd 71 7a 03 bc 0c 31 b9 3b b5 74 76 bd
       -0.05501454 -0.008024798 0.005651599 -0.060169894
0000c0 8c b7 4e bc b8 4c 8a 3d c8 67 65 3d 20 12 0e bd
       -0.012617003 0.06752914 0.056007177 -0.034685254
0000d0 3e ef 22 3d 1a 03 c9 3c f6 97 81 3d 26 42 01 bd
       0.03977894 0.024537612 0.063278124 -0.031557225
0000e0 9b 22 65 bd 4a eb 95 3c 5c 6e 13 bd 4e 36 04 bd
       -0.055941205 0.018300671 -0.03599392 -0.03227835
0000f0 a3 9d 42 bd 75 da 5e bd 31 59 31 3d cf fe 38 3d
       -0.047513615 -0.054407556 0.04329795 0.04516488
000100 ad d5 59 3d 5e 82 1e bd c1 6e 17 3c cb fe 7f bd
       0.053182293 -0.038698547 0.009242714 -0.06249885
000110 95 7b b2 3c ff 91 ca bb cb db 35 bd a4 d1 90 3d
       0.021787444 -0.006181955 -0.044399064 0.07071236
000120 6d 28 28 bd ea 16 f5 3b 59 09 23 bd 01 3f 55 3b
       -0.041054178 0.007479538 -0.039803836 0.0032538774
000130 74 ad cb bc 36 a8 50 3d de 29 1d 3c 46 0d 25 3c
       -0.024862982 0.05094167 0.009592501 0.010073965
000140 8e d5 97 bb 32 f9 1a bd 77 1b f5 bc 10 2e 08 3d
       -0.004633612 -0.037835307 -0.029920323 0.033247054
000150 c2 9e 6d bd 56 ad 64 3d e0 a5 83 3c e1 55 25 3d
       -0.05801273 0.05582937 0.016070306 0.040365104
000160 c4 4c 98 bd 22 17 2e 3c 53 06 5f 3d 01 e0 5a bd
       -0.07436517 0.0106256325 0.05444939 -0.053436283
000170 92 5a af bb 58 08 89 3c 32 a9 2f 3d ff fb 83 3d
       -0.005351373 0.016727611 0.042885967 0.06444549
000180 19 10 9b 3d ac 5b 3a bd 09 09 77 3c 42 6a 00 3d
       0.0757143 -0.04549758 0.015077838 0.031351335
000190 4d d4 c8 bb 84 03 bc 3d c4 00 d5 3c 0d 30 a5 3d
       -0.006128824 0.09180358 0.026001342 0.080658056
0001a0 a0 1a 04 3d 07 c4 b4 3d d6 ef ee bc 4a 12 19 bd
       0.032251954 0.08826452 -0.029167097 -0.037370957
0001b0 74 5c 5e bb b0 28 49 3d 54 52 b8 3d 8d e3 da 3d
       -0.0033929618 0.04911107 0.09000078 0.10687933
0001c0 8f 93 0f 3e e1 dc 2d 3d 09 2d 94 3d 9d d9 39 3d
       0.14021133 0.042446975 0.07235152 0.045373548
0001d0 72 c3 dc bb 28 37 58 3d 6b 61 4c 3d fa 2b 5b 3d
       -0.006737166 0.052786976 0.049897593 0.053508736
0001e0 8c ea b8 3d 77 20 5d 3d 4a f3 12 3e 22 47 04 3d
       0.09029111 0.05398604 0.1435062 0.0322944
0001f0 79 d1 90 3d de 35 28 bd dc 37 23 bd c3 61 c7 3c
       0.07071204 -0.041066997 -0.039848194 0.024338609
000200 74 55 4b 3c 34 ab 8f 3d ce 6f c3 3d c0 60 dd 3d
       0.01241051 0.07015076 0.095428094 0.10809469
000210 75 ea 03 3b f3 0c b5 bc d9 8a 56 3d 8a 05 c3 bc
       0.002012876 -0.022100901 0.05237851 -0.023806352
000220 58 23 50 bd c7 56 23 bd 68 2c 47 3c 10 52 c7 3d
       -0.050814956 -0.03987768 0.012156583 0.09732449
000230 4c 61 a1 3d 47 9e 71 3d a5 09 55 3d 71 96 d9 3c
       0.07879886 0.058988836 0.05201115 0.026560994
000240 db 3f 82 3d 38 6e eb bc 5d 00 69 bc 43 0c 8d bc
       0.06359836 -0.02873908 -0.014221278 -0.01721776
000250 88 fd 21 3c e5 9c 6a bc 91 89 08 3d ef 3b f5 3c
       0.009887107 -0.014319633 0.03333432 0.029935805
000260 83 b2 21 3d d0 da da 3c 3d e6 40 3d de 8f 23 bd
       0.039476883 0.026715666 0.047094572 -0.039932124
000270 8f bd 80 ba fd d4 95 3c a8 95 a6 3c 78 aa 0f bc
       -0.0009822118 0.018290037 0.020335034 -0.00876867
000280 6f fa b5 3c 06 3e a1 bd 0c 98 1d 3c 84 4e 78 3d
       0.022214143 -0.07873158 0.00961877 0.060621753
000290 07 e5 70 bd c3 9a df bc c7 da 43 3d f3 3b d5 bc
       -0.058812167 -0.027295476 0.047816064 -0.026029563
0002a0 48 24 0a 3d b1 a9 63 3d d0 d0 bd bb 71 b9 a9 38
       0.033726007 0.055581752 -0.0057927147 8.093089e-05
0002b0 1f 2d 99 bc 20 6c 5a bd 3e 7b 20 3d 4b 38 7e bd
       -0.018698273 -0.053325772 0.039180033 -0.062065404
0002c0 16 cb b3 3c 57 b7 d2 bb b5 ab 3f bd 9f 91 9b 3c
       0.021947425 -0.006430547 -0.046794612 0.018990336
0002d0 93 15 37 3d c3 4e 7a bd be 96 20 3d f7 b5 15 3d
       0.04469831 -0.06111027 0.03920626 0.03655049
0002e0 81 cf cb bd 27 10 1a bd 94 a8 6d bc 60 7d 4b bd
       -0.099516876 -0.03761306 -0.014505524 -0.049680114
0002f0 e3 f6 87 3c fb 4b 6d bd 2b 5c 0a 3d a8 5e 9a 3c
       0.016597217 -0.05793379 0.033779304 0.018843964
000300 76 a1 d8 bc 16 a9 1f be 5f 86 6a bd 44 6c 24 bd
       -0.026444178 -0.15591845 -0.057257053 -0.040142313
000310 43 5f 73 bd 70 a2 7a bd e4 89 bd 3a e7 b5 ee bc
       -0.05941702 -0.06119007 0.001446065 -0.029139472
000320 03 c6 19 bd 8c c8 e7 bc 71 47 cb bd eb a9 1e bd
       -0.037542354 -0.02829387 -0.09925736 -0.038736265
000330 d7 95 d2 bd c2 3c 4e bc 0e 57 59 bd 16 63 22 bd
       -0.10282486 -0.012587728 -0.053061537 -0.039645277
000340 51 77 0a 3b 48 3e af bd 15 46 12 bd 0a 1c 8f 3c
       0.0021128247 -0.08556801 -0.035711367 0.017469425
000350 34 23 7e bd 5f b8 92 bc 3a 98 40 bd 47 e2 46 bc
       -0.06204529 -0.01791018 -0.047020175 -0.01213891
000360 b7 d1 75 3d 30 f5 27 bd dc d9 e0 bb 7a f8 15 3d
       0.060014453 -0.041005313 -0.0068619084 0.03661392
000370 32 c3 5e 3d 9f da 8d 3d 1e 3e 95 3d 6d c9 2e 3d
       0.05438537 0.06926464 0.072872385 0.042672563
000380 6d 6f b0 bc 74 8b 4e 3c 3e 19 4b bd 6c e9 97 3c
       -0.021537507 0.01260649 -0.04958462 0.018543921
000390 2e 0b df bc dd a7 0b bc bf 1c 69 3d 89 85 4f 3c
       -0.02722701 -0.008523908 0.05691218 0.012666115
0003a0 56 70 0f bd 49 26 22 bd 1a 3d 01 3d 90 b0 85 3c
       -0.03501924 -0.039587293 0.03155241 0.016319543
0003b0 74 4a b9 3c f0 ef 99 3c fd b1 0f 3d df e2 54 bd
       0.02261851 0.018791169 0.035081852 -0.051974174
0003c0 3c b3 1b bd ad 64 fe bb 19 88 14 3c 33 0a 3c 3d
       -0.038012728 -0.0077634663 0.009065651 0.045908164
0003d0 bf 55 a7 3c 13 a7 9a ba 2f 62 2a bd 7f 63 0c bd
       0.02042663 -0.001179906 -0.04159754 -0.034274574
0003e0 cb a8 7b bd 9b 58 9e bb c6 36 c1 bc 2a da 43 3d
       -0.06144027 -0.00483234 -0.023585688 0.04781548
0003f0 15 38 8b bd 65 ff 1c bd 9b 5c 23 bd 45 69 0f be
       -0.06797806 -0.0383295 -0.039883237 -0.14005001

conv1.bias f4 [64]
000000 38 d9 c5 bc e6 5e 18 3d ec 58 eb bc df 2f f1 bd
       -0.02415143 0.037199877 -0.028728925 -0.11776709
000010 78 a7 58 3b 0a cb 83 3c 2a b6 92 3b 15 20 8e b9
       0.0033058804 0.016088028 0.004477282 -0.00027108254
000020 aa 31 0b 3c c6 fc 98 bd fa 20 47 3e be e8 6b bc
       0.008495728 -0.07470088 0.19446173 -0.014398752
000030 50 14 16 bd 6e 52 68 bd 45 cd aa bc cd fd 22 3c
       -0.036640465 -0.056719236 -0.020849833 0.009948206
000040 1b 02 0a ba 8b 45 ef 3c 9d f6 36 3e 59 56 33 3e
       -0.0005264596 0.029207965 0.17867513 0.17513408
000050 0a 32 c7 3a 63 db 0d bd e5 42 37 38 07 74 f3 bc
       0.0015197408 -0.03463305 4.36929e-05 -0.029718412
000060 e0 bd 4c bc d8 1f f4 3b 59 b6 92 3d 0c d0 e3 bc
       -0.012496442 0.007450085 0.07163686 -0.027809165
000070 3b 0b ce 3e 6b ff 00 3b 50 68 31 bb 50 74 9e bc
       0.40242943 0.001968349 -0.0027070232 -0.019342571
000080 cb f3 8c 3d 5e 0e 35 3e 39 64 92 bd e5 53 6c bc
       0.06882437 0.17681262 -0.07148022 -0.014424299
000090 51 20 8a 38 0a cb 2f bc 9a b9 40 bc 78 24 e1 3c
       6.586372e-05 -0.010729561 -0.011763001 0.02748321
0000a0 7a fc 0f bc 31 0a 1f bd a9 81 66 be df 50 1a bd
       -0.008788222 -0.03882808 -0.22510399 -0.03767478
0000b0 40 d1 32 bd d5 ee b4 3c 4a c9 d7 bb 22 ca 3d bd
       -0.043656588 0.02208654 -0.006585275 -0.046335347
0000c0 ce 81 cd bb d9 5f 6e bc a3 37 d6 bd 02 ce 63 3d
       -0.0062715774 -0.014549219 -0.104598306 0.055616386
0000d0 5e d5 b4 3c 48 47 b1 3d ea 82 16 3d b9 2a 66 3c
       0.022074398 0.08656174 0.036745943 0.014048272
0000e0 7a 01 c3 3d 97 44 17 3e 50 22 02 3b 57 b9 61 3b
       0.09521766 0.14772259 0.0019856878 0.0034442747
0000f0 72 2f 0b bc 97 e1 b0 bc 12 59 84 bc 5c 19 29 bc
       -0.008495199 -0.021591945 -0.016155753 -0.010320988

conv2.weight f4 [32, 64, 1, 1]
000000 20 cc 24 3b 5b 8f 38 3e d3 d9 a0 be 76 ac 64 be
       0.0025146082 0.18023436 -0.31416187 -0.22331414
000010 f2 b3 80 3e 45 b4 08 3e 77 42 88 3d 3c 7c f8 bd
       0.25137287 0.13350017 0.06653302 -0.12133071
000020 2f e2 43 be de 81 d1 3c 85 57 ad 3d 6e 9d 40 3d
       -0.19129251 0.02557462 0.08463959 0.047025137
000030 51 bb 33 3c db f9 13 be 20 ec be be 18 b4 87 3c
       0.010969953 -0.14450781 -0.37289524 0.016565368
000040 db 8a be bd b9 36 e9 3d 30 87 6d be ee c6 7c 3c
       -0.09303828 0.11387391 -0.23196101 0.015428288
000050 bf c9 82 ba 1e 8a 9c be 87 73 08 be 4e 4d 58 bc
       -0.0009978338 -0.30574125 -0.1332532 -0.013202025
000060 be 01 21 be 8b 25 13 3e 2b 25 6d 3e 23 84 9e 3d
       -0.15723321 0.1436979 0.2315871 0.07740047
000070 8a c0 38 bd f1 5c f5 3b cc f7 10 bd 76 e3 2b be
       -0.045105495 0.007487886 -0.035392568 -0.16785988
000080 a0 65 c3 3e d3 95 8a be 91 69 30 be 12 83 cd 3d
       0.3816347 -0.27067432 -0.1722777 0.10034765
000090 95 68 74 3d 32 ef ca bd 4f 40 ef bd e5 e4 72 bd
       0.05967005 -0.09908904 -0.11682188 -0.059300322
0000a0 85 44 ab bd 08 f2 a7 bd 9a e5 af be d8 5e a6 bd
       -0.083626784 -0.08200461 -0.3435486 -0.08123559
0000b0 67 46 58 3e 81 20 07 bd 64 fc 9d 3c c1 df b7 3c
       0.21120606 -0.032989983 0.019285388 0.022445561
0000c0 15 e7 4e 3d 10 69 e0 3d ea 72 f7 bd 2d fd 65 be
       0.050513346 0.10957539 -0.12082465 -0.2245986
0000d0 4e 9e e9 3c 26 49 da bc a0 66 e7 3d 99 56 bc ba
       0.028517868 -0.026646208 0.11298871 -0.001436907
0000e0 0f 66 29 bd fd ad 2c be 82 cc 4a 3e ea 47 16 bb
       -0.041357096 -0.16863246 0.19804576 -0.0022931048
0000f0 74 2a e9 bd 66 2c e2 3c b2 51 1b bb a6 5b fa 3d
       -0.113850504 0.027609061 -0.0023699817 0.12224512
000100 1f e0 c9 bd c0 df c5 bd c1 43 f9 bd ed 13 e3 bc
       -0.09857201 -0.096618176 -0.12171126 -0.027719462
000110 44 8e ae 3c 9f 3d 18 3e 92 10 66 bd 57 59 96 3d
       0.021308072 0.14867257 -0.056168146 0.07341259
000120 e9 24 7d 3d a5 1c a0 3d e8 59 a9 3d 13 7d f2 bc
       0.06180278 0.078179635 0.082691014 -0.029600656
000130 15 d5 2e 3d c8 98 55 3c 58 a0 b8 3c a1 43 3b bd
       0.04268368 0.013036914 0.022537395 -0.045718793
000140 22 2e a9 3d 10 75 c7 bd c2 b7 c0 3e f8 42 0d 3d
       0.08260752 -0.09739125 0.37640196 0.034487695
000150 63 1f 9f 3d 30 51 e5 bd c6 a2 f7 3d 2c f1 b1 bc
       0.077696584 -0.11197126 0.120915934 -0.021721445
000160 80 77 c3 bc e7 4b 02 be 93 24 92 3d aa f1 27 bd
       -0.023860693 -0.12724267 0.07135882 -0.041001953
000170 c0 b2 ed 3b 6f e4 48 3d db 2f 5e 3e fe a9 29 3e
       0.0072539747 0.049045976 0.21697943 0.16568753
000180 57 a1 88 3d 7b 30 d3 bd be 1c 8a 3e dd c9 34 3f
       0.06671398 -0.10311981 0.26975054 0.7062052
000190 5a 80 3b 3e 9e 75 80 3d 89 14 6f bd 27 bb 93 3d
       0.18310681 0.06272434 -0.058369193 0.07213431
0001a0 7a 9f 20 bb 2b af 41 3c 29 7d c0 bc 99 c5 d6 bd
       -0.0024509118 0.011821548 -0.023497181 -0.104869075
0001b0 21 f4 ce 3d 1f 93 cd 3c a1 26 23 bc a0 f3 1b 3f
       0.10105158 0.025094567 -0.00995794 0.6091862
0001c0 c6 91 a7 3e 74 6b c8 3d 6a 25 9c 3c 8f dd 1b 3d
       0.32728404 0.0978612 0.01906081 0.03805309
0001d0 53 81 32 3e b7 53 ba 3b 86 99 15 be 2d a1 02 3c
       0.17432146 0.005686249 -0.14609346 0.007972998
0001e0 55 ee a7 3d ff 9b 8e 3d f1 91 76 3e b1 7e 19 3e
       0.08199755 0.06963348 0.2407911 0.14989735
0001f0 4f 4e 00 be 61 ce 86 bd 4a 5c 94 3d dc bb 97 3b
       -0.12529872 -0.065823324 0.07244165 0.004630549
000200 0d 0b 9e 3d 90 4b 3e bd a3 09 d7 bd db 56 92 3e
       0.077169515 -0.04645878 -0.10499885 0.2858189
000210 08 43 7d be 00 04 57 3e 26 e4 70 3e fc ce 84 bd
       -0.24732602 0.2099762 0.23524532 -0.06484792
000220 97 dc 10 be 70 40 04 be 53 73 c0 3d 1a 6c 28 bc
       -0.14146648 -0.12915206 0.09396996 -0.01027968
000230 42 46 e9 3c 09 c7 87 bd 9c 6f 37 be c0 ff 8e 3d
       0.028475884 -0.0662976 -0.1791367 0.06982374
000240 e8 e3 a9 bd ad 64 f3 bc dd 26 67 be 0f 44 bc bc
       -0.08295423 -0.029711092 -0.22573419 -0.022981672
000250 9d a8 07 bb 04 85 bb bd 3d ad db bd b9 f3 aa bc
       -0.0020699867 -0.0915623 -0.10726402 -0.02086817
000260 fb 9f 69 bd a5 91 34 3e df ec 04 3f cf 0a 5d 3d
       -0.057037335 0.17633684 0.51923937 0.053965386
000270 6f 27 9c bd f1 f7 8e bc f4 9f 84 be ff fd 47 bd
       -0.07624709 -0.017452212 -0.25903285 -0.048826214
000280 8f df bc 3e ec 9f 1c be 08 7c ca bd 28 2a db be
       0.36889312 -0.1529538 -0.09886938 -0.428056
000290 56 4c 9a be 96 ed 17 be 0d e8 2a be d0 03 ec bc
       -0.30136365 -0.14836726 -0.16690083 -0.028810412
0002a0 73 9e 11 be 0e 33 62 bc 23 46 38 be 25 7c f6 bd
       -0.142206 -0.013806118 -0.17995505 -0.120353974
0002b0 ee ac 21 3d ce cb 9d 3d 35 ec f9 3d 94 b1 ca 3e
       0.03947156 0.07704888 0.12203256 0.39588606
0002c0 fe 91 94 bd cc 56 ae be f1 68 c9 bb 3f a5 0c be
       -0.07254408 -0.34050596 -0.006146543 -0.13734911
0002d0 70 29 13 be 9d bc 76 3e c8 f3 66 3a 3c 07 3c bd
       -0.14371276 0.24095388 0.000881013 -0.045905337
0002e0 65 e5 42 3d 92 25 f3 bc a8 6b 8f be 5f e6 a9 bd
       0.04758205 -0.029681 -0.28011823 -0.08295893
0002f0 8c 36 b0 3d 17 37 57 bd 17 fb fb 3c 42 15 08 3e
       0.08604154 -0.052542772 0.030759377 0.13289359
000300 a8 1c f1 3d 20 a6 40 3d 61 59 31 bd 8a 2e 6c bc
       0.11773044 0.04703343 -0.04329813 -0.014415393
000310 a9 c6 63 3e 6f a6 ac 3d 17 4f 33 bd b3 fc db 3c
       0.22243752 0.08430182 -0.043776598 0.026853895
000320 6c 63 32 bd f1 3c 21 bd b6 86 c4 3c c0 db a4 bd
       -0.043551847 -0.03936476 0.023990016 -0.080497265
000330 71 b1 82 bc 80 0d b9 3d 57 4e 92 bc 1e f9 1c 3d
       -0.015953751 0.09035778 -0.017859621 0.038323514
000340 f4 9b 91 bd cf 4f 7c 3d de 83 e0 bc 7e 07 26 3e
       -0.07109824 0.06159955 -0.02740663 0.16213796
000350 af 44 90 3d 65 dd 58 3c 02 8c c1 bc 46 bc ae 3c
       0.0704435 0.013236378 -0.023626331 0.02133001
000360 3d 56 b6 3d d9 8e 7f bd 8d 7a 78 3d 15 0c 95 bd
       0.089031674 -0.06239209 0.06066375 -0.07277695
000370 cd 52 3c 3d 15 8e df 3d 39 a6 2e bc 1c c1 83 3d
       0.045977402 0.10915772 -0.010659748 0.06433317
000380 b1 ae c9 3c 1f 90 aa bd a2 91 78 bd c1 50 3d be
       0.024619432 -0.0832827 -0.06068576 -0.18487836
000390 fe 39 85 bc ab d1 64 bd 5d 86 9c bd fa 9a 4e 3e
       -0.016263004 -0.055864017 -0.07642815 0.20176306
0003a0 5d f9 3a 3e 38 e0 89 bd 32 09 c1 bc 4e 9e 05 bd
       0.18259187 -0.067322195 -0.023563955 -0.032621674
0003b0 e4 c7 33 bc 43 0a 80 3d eb b4 dd bd 81 cd a3 bd
       -0.010972951 0.06251957 -0.10825523 -0.07998181
0003c0 f4 3d 23 be 4d ec e1 bc 3b aa f4 3c a1 af b7 bd
       -0.15941602 -0.027578497 0.029866328 -0.089690454
0003d0 d1 8e a2 bd 65 ca 9d 3d 93 15 b1 3d ae b8 20 bd
       -0.07937396 0.07704619 0.08646693 -0.039238624
0003e0 f8 34 ef 3d b7 b0 b8 bd 4b 08 e3 bd db a0 32 3d
       0.11680025 -0.09018081 -0.11085566 0.043610435
0003f0 c3 a1 a8 3b ca c9 e3 bd 75 b3 5e bd bc 7f 5e bc
       0.0051462366 -0.111224726 -0.054370362 -0.013580259

conv2.bias f4 [32]
000000 75 06 20 3d 6b 6b ab bd 2c 60 e9 3a 55 ee 2b bd
       0.039068658 -0.08370098 0.0017805151 -0.041975338
000010 af 66 0a bd 7b 9e 86 bd 95 9a d9 bc 50 1e 17 3d
       -0.033789333 -0.065731965 -0.026562968 0.036894143
000020 53 ac d0 3b 53 92 e0 3d a2 8a c1 3c 9f 3a 08 3d
       0.006368199 0.10965409 0.023625676 0.03325903
000030 5e 73 36 3d bc 34 ba 3c b5 47 0b 3d d3 d2 e8 3c
       0.044543616 0.022730224 0.034003932 0.028420841
000040 c6 ce 88 3d 27 ba 0a 3a a4 06 33 3d b3 c8 01 3d
       0.06680064 0.0005292021 0.043707505 0.031685542
000050 1b 45 97 3c de 7f b8 bd cf 9a 02 3d 2b 50 b5 3c
       0.01846557 -0.09008764 0.03188592 0.022132954
000060 58 65 5b bd c9 51 1f 3c 4e 9a 50 3d 8f c7 ec bc
       -0.053563446 0.009724089 0.050928406 -0.02890375
000070 0d 60 85 bd 2a e3 ca bc 2e b4 1c bd a6 a1 48 3d
       -0.06512461 -0.024766523 -0.03825777 0.048982285

conv3.weight f4 [3, 32, 5, 5]
000000 22 ba be bd 95 b7 4f be b8 08 9d bd 63 ae 90 be
       -0.09312846 -0.20284875 -0.076676786 -0.28258047
000010 f7 68 b9 3d 19 87 88 3d 39 48 57 3d 3b af 89 3c
       0.090532236 0.06666393 0.05255911 0.01680719
000020 1e b4 97 3e ff dc bc 3d ad 55 95 3d 2e 42 c8 3d
       0.29629606 0.09221839 0.07291732 0.09778248
000030 b4 bc 9d bd 4f fe ae 3d c8 25 2a be b0 b0 e1 3d
       -0.07702008 0.08544599 -0.16615975 0.110200286
000040 2e b0 ff 3c a8 dc cc 3c 0b 4b 98 3c 30 5a 69 3b
       0.031211939 0.02500756 0.01859047 0.0035606734
000050 13 66 ff bc 43 3f 14 bc ec aa 05 3e 15 55 95 3d
       -0.031176602 -0.009048286 0.13053483 0.07291619
000060 d1 12 dd bc 67 4f 08 bd 27 82 c1 bc f7 38 46 bb
       -0.026986511 -0.03327885 -0.023621632 -0.0030246356
000070 e5 f9 16 3d 1e 57 e3 3d 41 ca 5f 3d bc 8a 7d bc
       0.03685941 0.11100601 0.054636244 -0.015474971
000080 12 32 9a bd 5d 29 76 bd 5a 71 df 3d dd 4b b1 3d
       -0.075290814 -0.06009804 0.10910292 0.08657048
000090 ce 34 5b 3c 8b 77 20 bd 28 10 8b bd b9 b0 a2 bc
       0.013379289 -0.039176505 -0.06790191 -0.019859659
0000a0 62 31 ae bc c2 c7 97 3c cb ef 48 3d 73 bb 8e bd
       -0.021263782 0.01852787 0.04905681 -0.06969347
0000b0 be 8b 92 bd 92 61 15 3d 3c a4 1f 3d 2a ac f8 3d
       -0.0715556 0.036470003 0.038974985 0.12142213
0000c0 89 bc 88 bc 54 4e 54 bd e7 a6 dd 3b e1 e2 a4 bc
       -0.016691463 -0.051832512 0.006764281 -0.020127716
0000d0 73 e3 74 bd 74 ab c8 bd 1e cd cb bd 9d ef a2 3d
       -0.059787225 -0.09798327 -0.099512324 0.07955859
0000e0 10 21 dd bd 66 57 c5 3d 98 05 93 3e 59 e4 57 bd
       -0.10797322 0.096358106 0.28715205 -0.052708004
0000f0 1c 5f 8a 3d db de e4 bd 84 e8 db 3b 2f 23 24 3e
       0.06756422 -0.11175319 0.0067110676 0.16029046
000100 f8 b4 ec bd 77 23 8b 3c 1a b6 04 bd da 5a a5 bd
       -0.115579545 0.016984684 -0.032400228 -0.08073969
000110 d6 5a 06 be c9 cb c1 bd 27 ba e2 bb a2 4c bf 3c
       -0.13120589 -0.09462697 -0.0069191637 0.023351971
000120 a9 16 47 3d a3 28 76 3d 0b 5b a1 3d f0 15 45 bb
       0.048605595 0.060097348 0.07878693 -0.003007289
000130 1f 95 69 bc b2 43 6d 3c 9b 10 f7 bc 63 86 dd bc
       -0.014256745 0.014481472 -0.030159285 -0.02704162
000140 67 c5 b9 bb 1c c1 2a bc 10 0e 6f 3c c8 cd 8b 3c
       -0.005669284 -0.010422017 0.014590755 0.017065898
000150 f5 35 35 3c bd b8 f8 bc 08 5d d1 3c 84 9c 4b bc
       0.011060228 -0.030361528 0.025557056 -0.012427453
000160 f6 68 13 39 f2 6e 47 bc 83 1c 3a bc 5a 1a 51 3c
       0.00014058113 -0.0121724475 -0.011359337 0.01276263
000170 1b 43 8b bc 2b 55 d5 bc f9 4c 31 3d 25 a8 44 3c
       -0.016999772 -0.026041588 0.043286297 0.012002979
000180 6b 05 75 bc 12 d1 08 bd c7 41 09 bd 4c 89 9f 3c
       -0.014954905 -0.03340251 -0.033509996 0.019474648
000190 0b 24 07 bb 53 eb 22 3d c8 d4 c1 3c 2b 59 19 3d
       -0.0020620849 0.039775204 0.023661032 0.037438553
0001a0 21 a8 ac 3c 10 d6 a0 bc f2 6d ba 3c db 15 5f 3c
       0.021076264 -0.019633323 0.022757504 0.013616051
0001b0 6e 61 c4 3c 7a 33 50 3c cc b5 01 3d cf f4 f0 3c
       0.02397224 0.0127075855 0.031667516 0.029413609
0001c0 06 c7 8a bb b5 53 c1 39 8f a7 0d bb 5f 27 e6 3c
       -0.004235151 0.00036874195 -0.0021614765 0.028094945
0001d0 f6 2e d3 3c 5c 5c 36 bc 2c e2 f2 bc 39 e1 e5 bc
       0.025779229 -0.011130419 -0.029648863 -0.028061496
0001e0 32 c9 ae bc 6c 74 d8 3c 5f 16 90 bc 41 44 6f 3c
       -0.021336172 0.026422702 -0.017588792 0.014603675
0001f0 d9 81 55 3c 35 8c 5f 3c 07 86 c4 bb 0e 1b e5 bc
       0.013031446 0.013644268 -0.0059974226 -0.027967002
000200 d9 65 91 3b 9e 36 6f 3a 0c a0 db ba c1 9c 6d 3c
       0.00443719 0.0009125265 -0.0016756072 0.014502705
000210 99 6f 82 3c 29 08 62 3d 5c 2a 20 bd 8e a8 e6 3c
       0.015922355 0.055183563 -0.039102897 0.028156545
000220 1d f8 12 bc 00 5f 94 bb a9 f4 df 3b 6d cc 57 bb
       -0.008970288 -0.0045279264 0.0068345857 -0.0032928244
000230 d2 b5 aa 3c 26 b8 35 bc e5 85 64 bd a4 c6 bb bb
       0.020838652 -0.011091268 -0.055791754 -0.005730467
000240 18 b7 64 3b fb 37 e3 3c 84 9f ca 3c bc 0d 27 bd
       0.0034899171 0.027736655 0.024734266 -0.040784582
000250 b5 02 c7 3c 85 ca 3f bc 26 71 7e 3c f8 39 71 3b
       0.024293283 -0.011705999 0.015529906 0.0036808234
000260 ad d5 93 3c ac 19 09 3d 66 2b 88 3d b2 09 a2 3a
       0.018046224 0.03347175 0.066489026 0.0012362509
000270 1b e8 e7 3c b5 6d 92 3c a1 97 18 3d af 31 f6 3c
       0.028308919 0.017874578 0.03725398 0.030052988
000280 7e b0 15 bc 4d 0d 03 3d 1f de 24 3d 39 c0 73 bc
       -0.009136317 0.031995106 0.040250894 -0.014877372
000290 25 b9 28 bc 4e 26 2c bc 8f 82 e7 bb 57 37 04 bd
       -0.010298048 -0.010507179 -0.0070651243 -0.03227934
0002a0 45 ea 0b bd 13 49 95 bc 50 a1 66 ba d6 0c 1f 3d
       -0.034158964 -0.018223321 -0.0008797841 0.0388306
0002b0 4f 80 a8 bc 2f cd e2 3c cd 4e a9 3c 64 d5 b3 3c
       -0.020568995 0.02768573 0.020667458 0.021952339
0002c0 af a2 0d 3d 85 44 14 3c f6 3b 48 bd 65 c2 af bd
       0.034578975 0.009049539 -0.04888531 -0.08582
0002d0 4f 59 63 3c 9e 23 9a bb 8e 8d 2c 3c ff e8 1d bd
       0.013876273 -0.004703953 0.010531796 -0.03855228
0002e0 5e a4 cc bc 4d e0 81 bd 10 b7 2a bd 25 07 42 bd
       -0.02498072 -0.0634161 -0.04167849 -0.047370095
0002f0 dc e2 3b ba 0f 9b f6 3c bb b9 3e 3d 4d 8b 20 bc
       -0.00071672886 0.030103235 0.046563845 -0.009798837
000300 36 e6 6e bd 42 c1 93 bc ae 1f b1 3c d5 52 82 3b
       -0.058325015 -0.018036488 0.021621551 0.0039771595
000310 e8 f2 cf bb 0c ea ca bc 15 b9 90 bc ff 8c 0d bc
       -0.0063460954 -0.024769805 -0.017666379 -0.008639573
000320 28 d3 d1 ba 65 89 1b 3c 90 32 9e 3c d3 3a 15 3c
       -0.0016008364 0.009493207 0.01931122 0.009108263
000330 46 f4 96 bd bc 55 05 3d 56 75 6c 3c 73 6c 96 3c
       -0.0737081 0.032552466 0.014432272 0.01836226
000340 87 20 a0 3d 3a f8 79 3d 66 c5 9b bc 8e a3 b9 bc
       0.07818704 0.061027743 -0.019015025 -0.022660997
000350 bf 49 de bd ad 01 08 be aa b9 13 3d 32 53 94 bb
       -0.1085391 -0.1328189 0.036065735 -0.004526519
000360 03 61 13 3c 14 cd 21 3a 1f cd 24 bd db 2d 13 3c
       0.008995297 0.00061722216 -0.04023468 0.008983101
000370 9b 2d 77 bc 5f 5c f4 bb 21 7e 2f 3d 5b 32 c8 3c
       -0.015086557 -0.0074573006 0.042844895 0.024438074
000380 1a f2 c2 3c bb 29 ea bb 6e e3 e3 bb cf 2a f0 3c
       0.023797084 -0.007146088 -0.006954602 0.029317288
000390 c5 45 bb 3c 33 59 1f 3d a1 da 59 3c 78 0b 4f bc
       0.022860417 0.038903426 0.013296754 -0.012637012
0003a0 e4 dd d9 bc 87 26 88 bd b3 c0 c2 bb 78 03 0c 3d
       -0.026595064 -0.066479735 -0.0059433817 0.034182996
0003b0 70 59 65 bc bb 0b 4b 3d 0a 9d a7 3b f1 ae e8 bb
       -0.013998374 0.049571734 0.005115156 -0.0071009328
0003c0 66 d3 17 3d 46 e6 c9 bd 20 65 b8 3c e1 29 98 3d
       0.03706684 -0.09858374 0.022509158 0.07429863
0003d0 93 70 00 bd 61 0f 0b 3d 0a c7 5b bd bf 1a 06 3c
       -0.03135736 0.033950213 -0.053656615 0.008185088
0003e0 b6 af 19 3d da 7c 5f bc a4 3b 34 3d 26 7b f1 3c
       0.037521087 -0.013640607 0.04400219 0.029477667
0003f0 8a 35 f7 3c ff c8 1a 3d a4 e7 a2 3c 34 8e 0a bc
       0.030176897 0.03778934 0.019885845 -0.008456755

conv3.bias f4 [3]
000000 54 91 a7 ba ba e7 5d 3c 5b eb 56 bb
       -0.00127844 0.013544017 -0.0032794091
