chosen_models/SRGAN_SRCNN_ep6.pth (torch, 83637 bytes, 6 tensors)

conv1.weight f4 [64, 3, 9, 9]
0	0xbd8b5fd4	-0.06805387
1	0xbe1bd76e	-0.15218899
2	0xbe2b149e	-0.16707084
3	0xbde712a4	-0.11282852
4	0xbe697c6b	-0.22801368
5	0xbe12b888	-0.14328206
6	0xbd7cc772	-0.061713643
7	0x3d2bf7e7	0.041984465
8	0x3d79ec13	0.061016154
9	0x3b54d95d	0.0032478191
10	0xbdf345aa	-0.11878522
11	0xbdf844a3	-0.121224664
12	0xbde78b7f	-0.11305904
13	0xbe245620	-0.16048479
14	0xbe3d1c04	-0.18467718
15	0xbe22cd11	-0.15898539
16	0xbe0145c3	-0.12624268
17	0xbda45100	-0.08023262
18	0x3e50094b	0.20316045
19	0x3d88d060	0.066803694
20	0x3d674475	0.05646177
21	0x3d4132d0	0.0471676
22	0xbe6870b0	-0.22699237
23	0xbdea2441	-0.11432696
24	0xbb92ca29	-0.004479666
25	0x3cf2ebbc	0.029653423
26	0xbd22d203	-0.039751064
27	0x3e660718	0.22463644
28	0x3e022f36	0.12713322
29	0x3d87779d	0.06614611
30	0x3d5e3177	0.054246392
31	0xbb4ab9fe	-0.0030933614
32	0xbc92996b	-0.017895421
33	0x3c835a1d	0.01603418
34	0x3df6e6ff	0.12055778
35	0x3dca9430	0.09891546
36	0x3db82e31	0.08993185
37	0x3d309f91	0.043120924
38	0x3d460e15	0.048353273
39	0x3b281d8b	0.0025652375
40	0xbd06d263	-0.032915484
41	0xbdc7dfa3	-0.09759452
42	0xbd3e9eb6	-0.046538077
43	0xbda625a3	-0.081126474
44	0x3cdef566	0.027216624
45	0xbc8807b3	-0.016605234
46	0xbd726c35	-0.059185226
47	0xbd837b54	-0.06420007
48	0xbdeb83ac	-0.11499724
49	0xbdb79181	-0.089632995
50	0xbe008888	-0.12552083
51	0xbdbd6dbb	-0.09249445
52	0x3c769877	0.015050999
53	0xbc7a2335	-0.015267183
54	0xbce20630	-0.027590841
55	0xbd6ebfcc	-0.05828838
56	0xbcf9a402	-0.030473713
57	0xbde374e7	-0.11106282
58	0xbdb377c1	-0.087630756
59	0xbc4a5ecf	-0.012351706
60	0xbb78b35b	-0.00379487
61	0x3db6f8e6	0.08934192
62	0x3d6c341f	0.057666894
63	0x3db10212	0.08642973
64	0xbc909555	-0.017649332
65	0x3acb6a92	0.0015519431
66	0x3d52c549	0.051457677
67	0xbda81f68	-0.08209115
68	0xbd069543	-0.03285719
69	0xbc6f77f6	-0.014616003
70	0x3deffefd	0.11718557
71	0x3dac2e86	0.08407311
72	0x3d3986b2	0.04529447
73	0xbbb4350c	-0.0054994877
74	0x3ca6420f	0.020295171
75	0x3c6dad4d	0.01450665
76	0xbcd0ad5b	-0.025473287
77	0xbccd9ee7	-0.025100185
78	0xbb84f414	-0.0040574167
79	0x3d0f46bc	0.034979567
80	0x3cd84f19	0.026404904
81	0xbb221133	-0.002472949
82	0xbe2353e2	-0.15949968
83	0xbd174f24	-0.03694071
84	0xbb803969	-0.003913094
85	0xbd98665f	-0.07441401
86	0x3c3baae4	0.011454318
87	0x3cf8b407	0.030359281
88	0x3d7db452	0.061939545
89	0x3deef10f	0.11667072
90	0x3d445353	0.047931027
91	0xbd6293f8	-0.055316895
92	0xbd866187	-0.065615706
93	0x3d49dc52	0.04928238
94	0xbd969374	-0.07352343
95	0xbd64be46	-0.05584552
96	0x3c1c0171	0.009521828
97	0x3d0b2917	0.033974733
98	0x3d2d715e	0.042344444
99	0x3e15dc13	0.14634733
100	0x3e2c1edd	0.16808648
101	0x3ddf3ea4	0.109006196
102	0x3d480e01	0.04884148
103	0xbe510c77	-0.20414911
104	0xbdce78cc	-0.10081634
105	0xbc39bd0e	-0.011336578
106	0xbcdd5ec9	-0.027022736
107	0x3aea9b36	0.001789904
108	0x3e41dc83	0.18931775
109	0x3e3dde4d	0.18541832
110	0x3db26e73	0.08712473
111	0x3d35b9d8	0.044366688
112	0xbd7cbf0a	-0.061705627
113	0x3c68a726	0.014200008
114	0x3d439f7a	0.04775951
115	0x3c7f05f8	0.015565388
116	0x3c4dcd93	0.01256122
117	0x3d36e845	0.044655103
118	0x3dda35d0	0.10654795
119	0x3d184bbb	0.037181597
120	0x3db3e2ee	0.08783518
121	0x3d08c49a	0.03339062
122	0x3cfef00d	0.031120325
123	0x3c4d74cf	0.012540056
124	0x3db3b05e	0.08773874
125	0xbd6a1f98	-0.057159036
126	0xbc934f23	-0.017982071
127	0x3bc39000	0.005968094
128	0xbd8dc0d1	-0.069215424
129	0xbc9bf5e2	-0.019038144
130	0xbda219f9	-0.0791511
131	0x3ca366bd	0.01994645
132	0xbd73e91a	-0.059548475
133	0x3c856a3e	0.016286012
134	0xbd8204ff	-0.06348609
135	0xbd677edb	-0.056517463
136	0x3cb299ae	0.021801796
137	0xbdd82a65	-0.10554961
138	0xbcb0e78e	-0.021594789
139	0xbda6dff8	-0.081481874
140	0xbc8e300e	-0.017356899
141	0xbc494472	-0.012284385
142	0x3d9e1fef	0.077209346
143	0x3d5a3f89	0.053283248
144	0x3d7648a8	0.060127884
145	0x3ce135f2	0.027491543
146	0xbd61b358	-0.055102676
147	0xbc81cb62	-0.01584405
148	0xbd630ff5	-0.05543514
149	0x3d88a961	0.066729315
150	0xbc0163d9	-0.007897341
151	0x3dd942d7	0.10608452
152	0x3dd3ec97	0.1034786
153	0xbcc78b50	-0.024358422
154	0x3cba9bd1	0.022779377
155	0xbc500378	-0.0126961395
156	0xbc4fa297	-0.012673042
157	0xbcce4123	-0.025177544
158	0x3ce92ab4	0.028462745
159	0x3c636594	0.013879199
160	0xbc01f400	-0.007931709
161	0x3d190b77	0.03736445
162	0xbd604f68	-0.054763228
163	0xbe402659	-0.18764628
164	0xbe6931bf	-0.22772883
165	0xbd0edce9	-0.034878645
166	0xbdf6bdf4	-0.120479494
167	0xbd0c04d0	-0.034184277
168	0x3c3f0174	0.011658061
169	0x3d885f9f	0.06658863
170	0x3e09f474	0.13472158
171	0xbdeaacfd	-0.11458776
172	0xbe4877ce	-0.19576952
173	0xbe354167	-0.1770073
174	0xbd64e26b	-0.05587999
175	0xbe4b3f52	-0.19848374
176	0xbd0c20a9	-0.034210835
177	0xbde19fc6	-0.110168025
178	0xbc6bd4de	-0.014394013
179	0xbd102706	-0.035193466
180	0x3e09a319	0.13441123
181	0x3d59a30b	0.053134006
182	0xbd46b434	-0.0485117
183	0xbe06de44	-0.13170725
184	0xbea79633	-0.3273178
185	0xbdc9d408	-0.09854895
186	0xbe0fdec7	-0.14049827
187	0xbdc078ab	-0.093980156
188	0xbdb7dec1	-0.08978034
189	0x3e4f4c45	0.20243938
190	0x3e59c2ca	0.21265712
191	0x3e33a601	0.17543794
192	0x3d84b06b	0.064789616
193	0xbb1509c0	-0.0022741407
194	0x3db0c242	0.08630802
195	0x3dd6f7ea	0.104965046
196	0x3dfb97aa	0.12284787
197	0x3ddbf5b6	0.10740225
198	0x3e30f88b	0.17282312
199	0x3e10fe1a	0.14159432
200	0x3d8354e8	0.06412679
201	0xbcbe216c	-0.023209296
202	0xbd53bd89	-0.051694427
203	0x3d99c2d2	0.07507862
204	0xbb84ede3	-0.0040566786
205	0xbd95113c	-0.07278678
206	0xbc98de00	-0.018660545
207	0xba8152bc	-0.0009866576
208	0x3c8e81eb	0.017395934
209	0xbd870fa5	-0.06594781
210	0xbe0bfae5	-0.13669927
211	0xbde0acc5	-0.10970453
212	0xbdd5a09e	-0.10431026
213	0xbc244175	-0.010025372
214	0xbd1aa429	-0.03775421
215	0xbde6edd0	-0.11275828
216	0xbd4f4703	-0.05060483
217	0xbd233d6d	-0.039853502
218	0xbda55afd	-0.08073995
219	0xbded9d5f	-0.11602282
220	0xbdb7682b	-0.08955415
221	0xbdc34c00	-0.0953598
222	0xbd26a266	-0.04068222
223	0xbd39e200	-0.045381546
224	0xbd8c8f39	-0.06863255
225	0x3d7f9b0a	0.062403716
226	0xbd2ae3b3	-0.041721057
227	0xbe035f41	-0.12829305
228	0xbd2d866a	-0.042364515
229	0xbe21169f	-0.15731286
230	0xbd1f2377	-0.03885218
231	0xbd446df8	-0.047956437
232	0x3d5e6ecb	0.05430488
233	0xbd13010f	-0.03588968
234	0xbc11e19b	-0.008903886
235	0xbcb35c9e	-0.02189475
236	0xbcac298b	-0.021015903
237	0xbd7eba64	-0.062189475
238	0xbdfd8d46	-0.123804614
239	0xbc90a849	-0.01765837
240	0xbda4e460	-0.080513716
241	0xbb0549ef	-0.0020338257
242	0xbd817983	-0.06322005
243	0x3bcf86d0	0.0063332096
244	0x3bdc20d8	0.0067177825
245	0xbc1b133d	-0.009465036
246	0x3d8e16eb	0.06937965
247	0x3d88205c	0.06646797
248	0x3d182a77	0.037149873
249	0xbd422862	-0.047401793
250	0x3d492bce	0.04911404
251	0x3d49c98e	0.049264483
252	0x3c34db62	0.011038633
253	0xbc31d536	-0.010854056
254	0x3d802075	0.06256191
255	0x3d079389	0.033099685

conv1.bias f4 [64]
0	0x3e052f52	0.13006333
1	0x3b8059dc	0.003916962
2	0x3df1bd7f	0.11803722
3	0xbdaf12cb	-0.08548506
4	0x3e2d2db2	0.16911963
5	0x3d2dc3ab	0.04242293
6	0x3dcee591	0.1010238
7	0x3b90bc72	0.0044169957
8	0x3dbea77e	0.0930929
9	0xbcc22fd3	-0.023704445
10	0xbc7b8f72	-0.015354024
11	0xbe4be6f4	-0.1991232
12	0x3cb39f9b	0.021926692
13	0xbd07867d	-0.033087242
14	0x3e0a1e82	0.134882
15	0xbece4fd6	-0.40295285
16	0xbd717ee0	-0.058958888
17	0xbdb00088	-0.08593851
18	0x3cb05a2a	0.021527369
19	0x3e04f6ef	0.12984823
20	0x3d07e90e	0.033181243
21	0x3d09fe85	0.033689994
22	0x3cbb0b07	0.022832407
23	0xbd66a211	-0.056306902
24	0xbd55636b	-0.052096765
25	0x3e01d085	0.126772
26	0x3d92cbf6	0.07167809
27	0xbd69211a	-0.056916334
28	0xbc853331	-0.016259762
29	0xbdab45db	-0.08362933
30	0x3d83ae3a	0.064297155
31	0x3dac19a9	0.08403332
32	0xbd5c2fd3	-0.053756546
33	0x3d35533a	0.044268824
34	0x3d95e1bf	0.07318448
35	0x3cccd089	0.025001781
36	0x3db59b7d	0.08867548
37	0xbebb4d5c	-0.36582458
38	0x3da36bcc	0.07979545
39	0xbe0c6eb9	-0.13714112
40	0x3c688edb	0.014194216
41	0x3d06947d	0.032856453
42	0x3e738841	0.23782445
43	0x3ca78a17	0.020451589
44	0xbd312c8e	-0.04325538
45	0xbc2b9530	-0.010472581
46	0xbc06c83e	-0.008226452
47	0x3d0e3183	0.034715187
48	0xbda03f4c	-0.07824573
49	0x3cde67dd	0.027149135
50	0xbc64af13	-0.013957757
51	0xbdb92ec7	-0.09042125
52	0x3da24b11	0.07924474
53	0x3bbef3d1	0.005827405
54	0x3dab503f	0.08364915
55	0xbe8b7273	-0.27235755
56	0xbd61bff8	-0.055114716
57	0xbd53060e	-0.051519446
58	0xbf063907	-0.52430767
59	0x3d38d171	0.045121614
60	0xbdcae5ec	-0.09907135
61	0x3c466112	0.012108104
62	0xbb04a205	-0.0020238173
63	0xbcfcd047	-0.030861033

conv2.weight f4 [32, 64, 1, 1]
0	0x3d1ed626	0.038778447
1	0xbda3fb11	-0.080068715
2	0xbbb3e681	-0.0054901247
3	0x3d8c2e1d	0.06844733
4	0xbbfdb70c	-0.007742768
5	0x3d6e13c8	0.058124334
6	0xbc9f7957	-0.019467039
7	0xbd0bf420	-0.034168363
8	0x3c86126a	0.016366202
9	0xbc9a8f80	-0.018867254
10	0xbca8415e	-0.020538982
11	0xbe87b8aa	-0.26508075
12	0x3d05a282	0.032625683
13	0x3b699c3f	0.0035646108
14	0xbb35a03b	-0.0027713913
15	0xbdf1a63f	-0.11799287
16	0x3d78bf8e	0.060729556
17	0xbd810ca8	-0.06301242
18	0x3dd7eb3e	0.10542916
19	0xbd9b8862	-0.07594372
20	0x3e392336	0.18079838
21	0x3dbf0c3a	0.09328504
22	0xbdde3536	-0.10849993
23	0x3cd3f78f	0.025874881
24	0xbdb33d6b	-0.08751949
25	0xbd81b3ec	-0.063331455
26	0xbda42148	-0.080141604
27	0x3cd09682	0.025462393
28	0xbd627fde	-0.055297725
29	0x3de3d1b5	0.11123983
30	0x3ca34d1d	0.019934231
31	0xbc9a66a3	-0.01884777
32	0x3d8de043	0.0692754
33	0xbd59d524	-0.053181782
34	0xbdaa2fb9	-0.083098836
35	0x3ca6ea30	0.020375341
36	0x3ce9def9	0.028548704
37	0x3db5f3b4	0.08884373
38	0xbdaf3306	-0.08554654
39	0xbe6d2cad	-0.23161574
40	0x3ddb931d	0.10721419
41	0xbc1ccfae	-0.009570999
42	0x3c604c96	0.0136901345
43	0x3dd3ed08	0.103479445
44	0xbc3fb06c	-0.011699777
45	0xbd4ea12d	-0.050446678
46	0xbd6436fc	-0.0557165
47	0x3d8c86eb	0.06861671
48	0xbcf9392d	-0.030422771
49	0x3ee6dcda	0.4509037
50	0x3c1ac28a	0.009445796
51	0xbdd4411c	-0.10363981
52	0xbdc69359	-0.09696073
53	0xbd4b0f95	-0.049575407
54	0xbd0556fb	-0.032553654
55	0xbdf53174	-0.11972323
56	0x3d45c511	0.04828364
57	0xbd569177	-0.05238482
58	0xbb12fa55	-0.0022427042
59	0x3e075c55	0.13218816
60	0x3df15d34	0.11785355
61	0xbdf554ee	-0.1197909
62	0xbd337719	-0.043814752
63	0xbdba0635	-0.09083215
64	0xbcec4e79	-0.028846012
65	0x3d124540	0.035710573
66	0x3d66fef1	0.056395475
67	0xbd089874	-0.033348516
68	0xbd15850d	-0.03650384
69	0x3da592e0	0.08084655
70	0x3da80a4b	0.08205088
71	0x3d5cdd96	0.05392226
72	0xbdcb3ec4	-0.09924081
73	0x3baa9ea5	0.0052069
74	0xbe27c1e8	-0.16382563
75	0x3d3839a8	0.04497686
76	0x3db11d12	0.08648123
77	0x3d17936e	0.037005834
78	0xbb09fd26	-0.002105543
79	0xbe61e5ae	-0.22060272
80	0x3b482407	0.0030539052
81	0x3d266838	0.040626734
82	0xbdaf4ab4	-0.0855917
83	0xbc4ce012	-0.012504594
84	0xbebe0390	-0.37112093
85	0xbe12dca2	-0.14341977
86	0x3d669b0e	0.056300215
87	0x3cffc1cb	0.031220337
88	0x3b7da19b	0.003870106
89	0xbc9078f6	-0.017635804
90	0xbd8500d6	-0.064943
91	0xbd9c476b	-0.076308094
92	0xbda0d8b4	-0.07853833
93	0xbdb526b6	-0.08845274
94	0x3e3253e4	0.17414814
95	0xbdd45e26	-0.1036952
96	0x3d37dbc9	0.044887338
97	0xbf117375	-0.568168
98	0xbd43a3c1	-0.04776359
99	0x3dde745c	0.108620375
100	0xbde7a167	-0.11310082
101	0xbe4576de	-0.19283625
102	0xbd96b352	-0.073584214
103	0x3c0675c9	0.008206793
104	0xbdf14738	-0.11781162
105	0xbdcf08fe	-0.10109137
106	0xbdc0c2f3	-0.094121836
107	0xbc8c5f8b	-0.017135402
108	0xbcddeae2	-0.02708954
109	0xbd0b21f5	-0.03396793
110	0x3ddb7783	0.107161544
111	0xbb5e0490	-0.0033877231
112	0x3dae6454	0.0851523
113	0x3d8ac702	0.06776239
114	0xbdfeeaa9	-0.124471016
115	0xbe188191	-0.14893176
116	0xbd7674de	-0.060170047
117	0x3cbf7257	0.023369951
118	0x3e5260c0	0.2054472
119	0x3cf12ed9	0.029441284
120	0xbd4eb761	-0.050467853
121	0x3d415798	0.047202677
122	0x3e82d265	0.25551143
123	0x3e021e18	0.12706792
124	0xbd74ae9d	-0.059736837
125	0xbd002c03	-0.031291973
126	0xbd05dfb9	-0.03268406
127	0x3d542a8a	0.05179838
128	0xbcd0d958	-0.025494263
129	0x3becccef	0.0072265784
130	0x3db4d416	0.08829515
131	0xbd63c9cd	-0.055612374
132	0xbd970cf9	-0.07375521
133	0x3e0654c1	0.13118269
134	0xbcc6fd50	-0.02429071
135	0xbd40a248	-0.047029763
136	0x3d3d30dc	0.046189174
137	0xbddb0c4a	-0.10695703
138	0xbc710db1	-0.014712737
139	0x3e89cc47	0.26913664
140	0xbe74666a	-0.23867193
141	0x3d43dc53	0.04781754
142	0xbd1026c5	-0.035193224
143	0xbd771408	-0.060321838
144	0x3d0be7f1	0.034156743
145	0xbc187972	-0.009306299
146	0xbbf479cf	-0.00746081
147	0xbd578cc9	-0.052624498
148	0xbe25f562	-0.16206887
149	0xbd4f4ee4	-0.050612345
150	0x3d1b3ae7	0.03789797
151	0xbdaf1192	-0.08548273
152	0xbd29d8b9	-0.04146645
153	0xbe123d45	-0.14281185
154	0xbdc251e6	-0.09488277
155	0xbd6b5231	-0.05745143
156	0x3d9186cf	0.07105791
157	0x3d2b6713	0.041846346
158	0x3deb6fce	0.114959344
159	0x3d44953f	0.047993895
160	0x3ac8ba41	0.0015314297
161	0xbea162d0	-0.315207
162	0x3d58a42e	0.05289095
163	0x3e92a43f	0.28640935
164	0xbd9d8e39	-0.076931424
165	0xbe195af4	-0.14976102
166	0x3b84b5ca	0.0040499913
167	0x3ade7f15	0.0016975129
168	0xbb42e6df	-0.002973966
169	0xbd9da21b	-0.07696935
170	0xbda3c488	-0.0799647
171	0xbdbfa2fa	-0.09357257
172	0xbd27ea48	-0.040994912
173	0xbdedd5aa	-0.11613019
174	0x3e06a014	0.13147002
175	0x3e1c214f	0.15247081
176	0xbd3f80d3	-0.046753716
177	0xbe9d3ecb	-0.3071197
178	0xbcffd3c6	-0.031228911
179	0xbdb2cd2b	-0.08730539
180	0x3e80df42	0.25170332
181	0x3db50923	0.08839633
182	0x3e718227	0.23584805
183	0xbe5eb78b	-0.21749704
184	0x3db115e4	0.086467534
185	0xbd9f4b77	-0.07778066
186	0x3ec9e11c	0.39429557
187	0x3d65d21b	0.056108575
188	0xbd451b01	-0.048121456
189	0xbc838276	-0.01605342
190	0xbd95d500	-0.07316017
191	0x3d487341	0.04893804
192	0xbc44f978	-0.012022369
193	0x3d6b7750	0.057486832
194	0xbd02b473	-0.03191037
195	0x3d7084ff	0.058720585
196	0x3b25386f	0.002521064
197	0x3c066a91	0.008204118
198	0xbbd40692	-0.00647051
199	0xbcab2ee5	-0.020896384
200	0xbca18622	-0.01971728
201	0xbc8a3461	-0.01687068
202	0x3d1d3fb9	0.03839085
203	0x3c143390	0.009045497
204	0xbc3e39fc	-0.011610504
205	0xbe0e4a39	-0.13895501
206	0xba6bc7e8	-0.0008994327
207	0xbc96c36d	-0.018403733
208	0xbc534c6d	-0.012896639
209	0x3a9f9f74	0.0012178258
210	0x3cc661da	0.024216581
211	0xbccdc608	-0.025118843
212	0xbda181e8	-0.07886106
213	0x3e06c4ee	0.1316106
214	0xbd9f3413	-0.07773604
215	0x3d7ce5cd	0.061742593
216	0xbddcd264	-0.10782316
217	0x3dc9cbff	0.09853362
218	0x3d5c7e9b	0.053831678
219	0x3dcbf188	0.09958178
220	0xbcaf61a6	-0.021408867
221	0xbd11d3c9	-0.035602365
222	0xbd02f760	-0.031974196
223	0x3d556272	0.052095838
224	0x3cdcb0f7	0.026939852
225	0x3ba2c418	0.004967224
226	0xbdf25717	-0.11833017
227	0x3bf27cbb	0.007400123
228	0x3d0fe055	0.03512605
229	0xbc8becf7	-0.017080767
230	0xbdb8b20f	-0.09018337
231	0x3b329bcf	0.0027253514
232	0x3cfdd57b	0.030985584
233	0x3dff1f6a	0.12457164
234	0xbe0e499d	-0.13895269
235	0x3d31cd0f	0.04340845
236	0xbc203055	-0.009777148
237	0x3b27d034	0.0025606276
238	0x3d289d9d	0.041165937
239	0xbc853e03	-0.016264921
240	0xbdc2b92a	-0.095079735
241	0xbcb06efe	-0.0215373
242	0x3c19b4db	0.009381498
243	0xbd7e4cf5	-0.06208511
244	0x3cf4507b	0.029823532
245	0x3d90730f	0.07053196
246	0xbb3500a4	-0.002761879
247	0xbe622ec3	-0.2208815
248	0xbddcbf71	-0.10778702
249	0xbd8076ec	-0.062726825
250	0x3de6f662	0.112774625
251	0xbc92f0d3	-0.0179371
252	0x3d918ede	0.07107328
253	0x3d725a3d	0.05916809
254	0x3e0e41b8	0.13892257
255	0xbc731958	-0.014837585

conv2.bias f4 [32]
0	0x3c4651a2	0.012104424
1	0x3cbfcfff	0.02341461
2	0xbd27545d	-0.04085194
3	0x3d31bb1c	0.043391332
4	0x3cb40664	0.021975704
5	0xbe47ead6	-0.19523177
6	0xbd0c5dd1	-0.034269158
7	0xbe0128de	-0.12613246
8	0xbd217a23	-0.03942312
9	0xbcc605f6	-0.024172764
10	0xbd44938e	-0.04799228
11	0xbe05509f	-0.13019036
12	0x3b02499d	0.0019880303
13	0x3d66888e	0.056282572
14	0xbdc9e5c6	-0.09858279
15	0xbe86755b	-0.2626141
16	0xbdc820d9	-0.0977189
17	0x3ce2489d	0.027622515
18	0xbced100d	-0.028938318
19	0x3d0d594b	0.034508985
20	0x3c817750	0.015803963
21	0xbe115d32	-0.14195707
22	0xbd1946c7	-0.037421014
23	0xbe6eca29	-0.23319305
24	0xbca72159	-0.020401644
25	0xbe1b52e8	-0.15168345
26	0x3ba59d83	0.0050541773
27	0xbdc2db66	-0.09514503
28	0xbcc496c4	-0.023997672
29	0x3cd12dc0	0.02553451
30	0xbe26755f	-0.16255711
31	0xbb35a296	-0.0027715317

conv3.weight f4 [3, 32, 5, 5]
0	0xbcbb47d0	-0.022861391
1	0x3d16005e	0.036621444
2	0x3d83414b	0.06408938
3	0x3c6cebd6	0.014460525
4	0xbccb463b	-0.024813762
5	0x3b736665	0.003713989
6	0xbc96fe66	-0.018431854
7	0xbd386ae2	-0.045023806
8	0xbc95793a	-0.018246282
9	0x3cb456dc	0.022014074
10	0x3d7b7d25	0.061398644
11	0xbdc3288a	-0.095292166
12	0xbe263b77	-0.16233622
13	0xbd08a40c	-0.033359572
14	0x3db48aeb	0.08815559
15	0x3d6aa88e	0.057289653
16	0xbd17a622	-0.03702367
17	0xbda84d80	-0.08217907
18	0x3cf3ac9a	0.029745389
19	0x3d6d1723	0.057883393
20	0x3b998765	0.0046853297
21	0x3d31d0d3	0.04341204
22	0x3d5a09ae	0.053231888
23	0x3d72973a	0.059226252
24	0xbd3c554f	-0.045979794
25	0x3d8b7e3e	0.06811188
26	0x3cc097aa	0.023509819
27	0xbcac3bad	-0.02102455
28	0x3c348e2f	0.011020227
29	0x3dbf45e7	0.09339505
30	0xbbb068e7	-0.005383599
31	0x3cb77f5a	0.022399593
32	0x3c15dafc	0.009146448
33	0xbd212257	-0.03933939
34	0x3d06dcfe	0.0329256
35	0xbc8ad13a	-0.01694547
36	0x3c7741a5	0.0150913345
37	0x3d1dda65	0.038538355
38	0xbd8b7e76	-0.0681123
39	0x3d229547	0.039693143
40	0xbc965eed	-0.018355811
41	0xbcf2de32	-0.029646967
42	0xbda80a9b	-0.08205148
43	0xbd615041	-0.055008177
44	0x3d851721	0.06498552
45	0x3d5e2b81	0.054240707
46	0xbd0f8b5b	-0.03504501
47	0xbd968d4f	-0.07351171
48	0x3cc57a18	0.02410607
49	0x3d4636ec	0.04839222
50	0x3c99033e	0.018678304
51	0xbd0e9d18	-0.034817785
52	0xbd0bd924	-0.03414263
53	0xbd4c8a5a	-0.04993663
54	0x3b0551ef	0.0020343026
55	0xbc173821	-0.009229691
56	0x3c4a73ac	0.01235668
57	0x3d24c97d	0.040231217
58	0x3c0afe72	0.008483516
59	0xbc29f3e0	-0.010373086
60	0xbc22fc89	-0.009947904
61	0x3d07e5e4	0.033178225
62	0x3e26f965	0.16306074
63	0x3ce7b655	0.028285185
64	0xbcd25fc3	-0.025680428
65	0xbd01d1d9	-0.031694267
66	0xbc8dd6ee	-0.0173144
67	0xbcfc64a0	-0.0308097
68	0xbdde5fcf	-0.10858118
69	0xbcf055a2	-0.029337708
70	0x3aa123c9	0.001229399
71	0x3c95ca16	0.018284839
72	0x38e59642	0.000109475586
73	0xbb714617	-0.0036815458
74	0x3d3aa9cc	0.045572087
75	0xbdd58808	-0.104263365
76	0x3b221f5e	0.0024737935
77	0x3d417266	0.04722824
78	0xbbb185ae	-0.005417547
79	0xbd4258f4	-0.047448114
80	0xbd208226	-0.03918662
81	0x3c2dc840	0.010606825
82	0x3da6b1fa	0.08139415
83	0x3cecf7d1	0.028926762
84	0xbc966536	-0.018358808
85	0x3d09ff61	0.033690814
86	0x3da97508	0.08274275
87	0x3dec878a	0.115492895
88	0x3d8b438a	0.067999914
89	0x3d0cfdd9	0.034421775
90	0xbbe46ea0	-0.0069711953
91	0xbbbfd8ea	-0.0058547156
92	0x3d29be57	0.041441288
93	0x3c99ff38	0.018798456
94	0xbcfe8d0a	-0.031073112
95	0xbd61239c	-0.0549656
96	0xbd872de0	-0.06600547
97	0x3cea2964	0.02858419
98	0xbd30a301	-0.043124203
99	0xbd526927	-0.051369812
100	0x3b14bd4f	0.0022695845
101	0x3cb798f9	0.02241181
102	0x3be990d7	0.007127862
103	0xbbd31557	-0.006441753
104	0xbc372148	-0.011177368
105	0x3c050d9c	0.0081209205
106	0xbb58c341	-0.0033075365
107	0x3cae4cba	0.02127682
108	0xbb5095d5	-0.0031827588
109	0x3b165a44	0.0022941986
110	0x3a9e50d2	0.001207853
111	0x3d06f569	0.032948885
112	0x3d1b6b24	0.037943974
113	0xbca0a32e	-0.01960906
114	0xbcc62274	-0.02418635
115	0x3d381d51	0.044949833
116	0x3ca90781	0.020633461
117	0xbb11dcb1	-0.0022256786
118	0xbcdba0ae	-0.026810016
119	0xba43f00b	-0.0007474429
120	0x3d1b4026	0.037902974
121	0x3d1b29ff	0.037881847
122	0x3ccbb197	0.024864955
123	0xbc8bda03	-0.01707173
124	0xbb784920	-0.0037885383
125	0x3b61276d	0.0034355775
126	0xbc878f5b	-0.01654785
127	0x3aa009b0	0.0012209918
128	0x3d0cfa7b	0.034418564
129	0x3cf97a2b	0.030453762
130	0x3cd4d8cf	0.025982289
131	0xbc6c5faa	-0.014427105
132	0x3c7bf2d7	0.015377722
133	0xbbf23d44	-0.0073925573
134	0xbcc420a7	-0.023941351
135	0xbbb8049f	-0.0056157853
136	0x3c906974	0.017628409
137	0x3cd141ca	0.025544066
138	0xbc782026	-0.015144384
139	0x3ce581b2	0.028015945
140	0xbcb415f1	-0.021983119
141	0x3c18d3fe	0.009327887
142	0x3d032b35	0.032023627
143	0xbcc6e7e0	-0.024280488
144	0x3c813f39	0.015777217
145	0x3cb53fc0	0.022125125
146	0xbcde1729	-0.027110653
147	0xb90141fe	-0.00012326983
148	0xbaf40f9a	-0.0018620372
149	0xbcb5f61e	-0.022212084
150	0x3d573406	0.052539848
151	0x3ca573e6	0.020196866
152	0xbc7be703	-0.015374902
153	0xbc026d6d	-0.007960659
154	0x3ca349cb	0.019932648
155	0xbc362930	-0.011118218
156	0xbd0b813f	-0.034058806
157	0xbbab1312	-0.005220779
158	0xbc6a6cf9	-0.014308208
159	0x3c2f5f4d	0.010703874
160	0x3c15e1c5	0.009148066
161	0x3d1cdbcd	0.038295556
162	0x3dac02bd	0.0839896
163	0x3dc60a6d	0.09669957
164	0x3d0cf870	0.034416616
165	0x3abd0c75	0.0014423268
166	0xbcb8f3b0	-0.022577137
167	0x3b641a64	0.003480577
168	0xbd8b681a	-0.06806965
169	0xbcd10521	-0.025515141
170	0x3c8c9a64	0.017163463
171	0xba56c16a	-0.0008192273
172	0xbcb70663	-0.022341913
173	0xbcd30478	-0.025758967
174	0xbd235721	-0.039878014
175	0xbde55a78	-0.11198896
176	0x3c9bd6e3	0.019023364
177	0xbd3a2364	-0.045443907
178	0x3d14e221	0.036348466
179	0xbdc9295d	-0.098223425
180	0x3e3f3a4c	0.18674582
181	0xbca18029	-0.019714432
182	0xbe62faef	-0.22166036
183	0xbdd4c172	-0.10388459
184	0x3e18c0b8	0.14917266
185	0xbe4a4fcf	-0.19757007
186	0xbe7a5ded	-0.24449892
187	0x3f29697f	0.661766
188	0xbba2ccfd	-0.004968284
189	0xbe50b3ad	-0.20381041
190	0x3ce612d6	0.028085154
191	0xbc1f5d95	-0.009726902
192	0x3ef775a0	0.48331928
193	0x3e8c3dce	0.27390903
194	0xbc306da9	-0.0107683325
195	0x3d1c670f	0.03818422
196	0x3c18cea4	0.009326611
197	0xbe274488	-0.16334736
198	0xbceed4e0	-0.029154241
199	0xbd209780	-0.03920698
200	0xbd4fd5de	-0.05074107
201	0xbd277c9a	-0.040890314
202	0xbd1a61d5	-0.037690956
203	0xbd9f9f84	-0.07794097
204	0xbd7b3e90	-0.06133896
205	0x3b3842a6	0.0028115897
206	0x3b386371	0.0028135444
207	0x3d907398	0.07053298
208	0x3c3d4f73	0.011554587
209	0x3d0ef748	0.034903795
210	0xbc939a5a	-0.018017936
211	0xbc9ee851	-0.019397886
212	0x3cf83ab4	0.03030143
213	0xba7b5e6a	-0.0009588959
214	0x3ca1fb17	0.01977305
215	0xbbf82283	-0.0075724735
216	0xbc84b723	-0.016200608
217	0x3cd35e17	0.025801701
218	0xbc05441b	-0.008133913
219	0xba0c2cb3	-0.0005347237
220	0x3c187a5b	0.009306516
221	0x3c88afc5	0.016685376
222	0xbbfc4a60	-0.007699296
223	0x3a3d2134	0.00072147255
224	0x3ce32e5f	0.027732072
225	0xbd0f62d5	-0.035006363
226	0xbc4ee8cf	-0.012628748
227	0xbcdd0501	-0.026979925
228	0xbc71f1b5	-0.0147671
229	0x3c9f78f9	0.019466864
230	0x3dace5d1	0.084422715
231	0xbcaedd73	-0.02134583
232	0xbc92913e	-0.017891522
233	0x3c05c5d2	0.00816484
234	0x3cca68d6	0.024708193
235	0xbd7e0d4a	-0.062024392
236	0xbcf4c5c1	-0.029879453
237	0x3db04f69	0.08608896
238	0x3c3ecdfd	0.011645791
239	0xbcdad411	-0.02671245
240	0xbc4bf020	-0.012447387
241	0xbd7b0b85	-0.061290283
242	0xbd2c1d2d	-0.04202001
243	0xbc8b707e	-0.017021414
244	0x3ced5b6c	0.028974257
245	0xbbea3c63	-0.007148312
246	0xbc8bee63	-0.017081445
247	0xbbcd6af1	-0.006268852
248	0x3b9e5a8e	0.0048325723
249	0x3c1d1abe	0.009588895
250	0xbdcab16f	-0.09897124
251	0x3d9bf686	0.0761538
252	0x3d8e856d	0.06959043
253	0x3dbc5209	0.091953345
254	0xbd2e58d8	-0.042565197
255	0x3e014e90	0.12627625

conv3.bias f4 [3]
0	0xbba4241c	-0.0050091874
1	0xbb8c2598	-0.0042769425
2	0x3b021ea6	0.0019854694
